UserGuidanceAI/models/BurstSize_180/UserGuidanceAIMLP.onnx (onnx, 301847 bytes, 8 tensors)

coefficient f4 [2880, 23]
00000000: 480b 50bd 8ead 403c f118 7dbd d219 abbd
00000010: 950b 82bd 3810 923d 1bc4 9abd b485 e13c
00000020: 3df2 52bc 8b61 c03d be64 513d 3478 833b
00000030: 2b04 fdbc 02ed b53d 5e6f 2fbd 4b36 b5bc
00000040: 09b7 c3bc 7e7b bdbc 04cd 1abd ce58 e4bd
00000050: 65a9 e03b c128 963d fea7 1dbd 3e74 a7bc
00000060: f010 d03c f30b 8c3c 6618 cfbd c50d 92bd
00000070: c11c 8e3d 5e64 27bc 693b 443b f4ea 1cbc
00000080: cf17 023e 41b0 693d dd3a 6a3b c120 bfbc
00000090: d85c 953d 78a7 f13c 537e a2bd e4ab a53b
000000a0: 67cc 8c3c 5ea0 a03c 2bb8 d4bd 054b d73b
000000b0: 91d1 e6bb 6246 bebc 75a8 993b 102a d0bc
000000c0: fc38 0dbd f175 c1bd 8fbc 87bd 8272 dd3d
000000d0: 36fd 8cbd 1450 3d3c 0874 23bb 6ca0 133d
000000e0: 1110 8a3d 6a81 2cbd e77d fa3a e9e4 923d
000000f0: f736 25bd fc6f 19bd 1ddb a5bb e5a4 07bd
00000100: 7c79 20bd 69f2 9ebd df25 16bb cc00 c03c
00000110: d68a bc3c 6457 9bbc d965 013d 6fe0 54bd
00000120: 1dda babd 2c99 073c d152 9d3d 1a90 8dbd
00000130: 1186 8b3d 950c 86bc 763e bf3d 6026 ab3d
00000140: 1302 c33c dd3e 8c3b f88e 953d c530 b2bc
00000150: a5b1 4bbd fb52 693c 33df e8bc 3247 313d
00000160: 9b5d 67bd 95df abbb 7c58 6abc e13c c63c
00000170: 84c6 07bd 9c56 b1bb e96a 00bd 2a7e a5bd
00000180: 0342 7d3c 432d b33d 625b 9ebd db03 2a3d
00000190: cc29 77bc de1f 943d 540d c73d 28b3 d0bc
000001a0: 9640 ef3c 6ec9 843d 8eb0 58bd dc7d 2d3c
000001b0: 5f98 a3bb 4e1b be3c a8c3 d9bc a8b8 c8bd
000001c0: c567 bc3c 26b8 2f3d 4880 59bd ce21 ba3b
000001d0: 7b85 ae3b 98ee 4e3c 72d6 edbc 3054 58bd
000001e0: e248 fa3c d7cb 9cbd 16f7 62bc 9d54 d3bc
000001f0: ff8c c53d b4de 793d a1ac 0fbc 7098 bc3c
00000200: 520a 813c 54b8 05bd b01d 83bc 7908 c03c
00000210: 0375 5bbc 2570 24bd bafc 0bbd f4ab 0dbd
00000220: 25e1 403d 4edc 8fbc d617 af3c 42ac 8e3b
00000230: 8b4d ccbc 5189 9ebd c3eb 67bd d88c 093d
00000240: 588c 9ebd b0c1 19bc ec8a e8bc 600f a83d
00000250: 4ccc 7a3d 0f05 71bd 9444 47bd 1c88 b83d
00000260: a583 f5bb b326 57bd 3383 1abd 6a1b bd3b
00000270: 171a b6bc 77cb 54bd a3a8 063d 138e 443d
00000280: 67a6 cdbc 5bc3 8bbb 0898 08bc aa74 95bb
00000290: 9f02 95bd 32dc 6bbd 9cc2 bd3c 31cb 22bd
000002a0: 8428 fe3c 7bc1 163b 13ce 2d3d 21f8 bf3d
000002b0: 1be6 0fbc 4df4 a5bc 0615 4e3d 7218 b23b
000002c0: a88b ebbb e257 05bd 6a60 59bd 247d 42bb
000002d0: 297c 40bd 74f1 febc bfa1 163d 03ca 09bd
000002e0: 8337 babc 7788 003c 4bdb 83bd 074c f8bc
000002f0: 809a 3abc 325b c43d 6f82 70bd 9856 8bbc
00000300: eaf5 883c 7dfe a93d a0f1 ae3d 67db b93c
00000310: 4cc1 5dbd b128 af3c 9074 abbb 90b0 643c
00000320: 81d0 e53c e633 01bc ba95 3e3d 27d8 25bd
00000330: b3a5 80bc 6b90 693c a44c 6a3c 5e1f 3a3a
00000340: cfad c03c fe2f 393b 3268 61bd 2524 063d
00000350: ea16 ec3c 9a9b 91bd 58cb 0bbc a6d0 57bb
00000360: fb38 7e3c 18cf aa3d 6d51 303c 38c0 60bd
00000370: 021f 6d3c 7dab 03bd c195 71bd 94ec 7c3c
00000380: 7842 c3bc 7fb6 383d 3a9f 46bd 6c13 fd3c
00000390: 265e 3a3d 6c2c 243d d760 66bc 33cf 8dbc
000003a0: e112 dcbb 7e0a 84bd c5dd 10bc dbcb 8b3d
000003b0: 991e a0bd c978 0a3d 2810 11bc 9d22 b93d
000003c0: b811 f73c ac27 453c b81d b8bb 2576 6e3c
000003d0: 5ee4 1e3c e200 a7bc dc0b 5bbd 331f 9cbc
000003e0: f1cb b03c 454b 5bbc 3360 49bd fb6c 773d
000003f0: cff0 0abc 1492 003d 67af 08bc 0be9 33bb
-0.05079201 0.011760129 -0.061791364 -0.08354534 -0.06349865 0.07132 -0.075569354 0.027529575
-0.012875137 0.09393605 0.051121466 0.004012132 -0.030885777 0.08883096 -0.042830817 -0.022120615
-0.023890989 -0.023130175 -0.037793174 -0.11149751 0.006856131 0.07331992 -0.038490288 -0.02044117
0.025398701 0.017095542 -0.101120755 -0.071315326 0.06939078 -0.0102168005 0.0029942638 -0.009577502
0.12704395 0.057052854 0.0035740652 -0.023331048 0.07293099 0.0294988 -0.07934251 0.0050558913
0.01718731 0.019607719 -0.1038669 0.0065702223 -0.007044025 -0.02322692 0.004689271 -0.025410682
-0.034478173 -0.09446324 -0.066277616 0.10812856 -0.06884234 0.011554737 -0.0024940986 0.036041662
0.06741346 -0.042115606 0.0019111008 0.071725674 -0.04033562 -0.037460312 -0.0050615207 -0.03311624
-0.039178357 -0.0776108 -0.0022910757 0.02343788 0.02301542 -0.01896257 0.03159127 -0.05197185
-0.09123633 0.008276265 0.076818116 -0.06912251 0.068126805 -0.016363421 0.09338085 0.08356929
0.0238047 0.004279955 0.0730266 -0.02175177 -0.049729962 0.0142409755 -0.028426742 0.043280788
-0.056485754 -0.005245159 -0.014303323 0.024198951 -0.033148304 -0.005411936 -0.031351957 -0.080807045
0.015457633 0.08748867 -0.07732274 0.041507583 -0.015085649 0.07232641 0.09719339 -0.025476053
0.029205602 0.06483732 -0.05290275 0.010589089 -0.0049925293 0.02320638 -0.026582554 -0.098008454
0.0229987 0.042900227 -0.053100854 0.0056802994 0.0053259707 0.012630127 -0.02903292 -0.052814662
0.030552331 -0.07656067 -0.013852855 -0.025797183 0.096460335 0.061003402 -0.008769185 0.023021907
0.015751991 -0.032646492 -0.016005367 0.02344154 -0.013394597 -0.04014601 -0.034176566 -0.034587815
0.047089715 -0.017561104 0.02137367 0.004354031 -0.02493932 -0.07741035 -0.056621324 0.033581585
-0.07741612 -0.009384558 -0.028386556 0.082060575 0.06122999 -0.058842715 -0.048649386 0.09010336
-0.0074925 -0.05252714 -0.037722778 0.0057710903 -0.022229237 -0.05195185 0.03287567 0.047987055
-0.02510376 -0.0042652315 -0.008337028 -0.0045610266 -0.072758906 -0.05758304 0.023164086 -0.03974456
0.031025179 0.0023003507 0.042432856 0.09373499 -0.008782889 -0.020258093 0.05031302 0.005435043
-0.007188279 -0.032554515 -0.053070463 -0.002967664 -0.04699341 -0.031120993 0.036775347 -0.03363992
-0.022731548 0.007845036 -0.06438311 -0.03030969 -0.011389375 0.095877066 -0.05871814 -0.017009065
0.016718823 0.08300493 0.0854218 0.022687627 -0.05413942 0.021381708 -0.005232401 0.013958111
0.028053524 -0.007885909 0.04652951 -0.040489342 -0.015704012 0.014255623 0.014300499 0.0007100011
0.023520378 0.0028257365 -0.05503101 0.032749314 0.02881952 -0.07109757 -0.008532368 -0.003293076
0.015516515 0.08340281 0.010761601 -0.054870814 0.014472725 -0.032145966 -0.058980707 0.015437264
-0.023835406 0.045095917 -0.048491694 0.03089305 0.045499943 0.040081427 -0.014061174 -0.017310714
-0.0067161177 -0.06447314 -0.0088419365 0.06825992 -0.07818336 0.033806596 -0.00885395 0.09039805
0.030159816 0.012033384 -0.005618777 0.014554535 0.009698002 -0.020386163 -0.053478107 -0.019057846
0.021581622 -0.013384645 -0.04916401 0.060406666 -0.008480265 0.03138931 -0.0083426 -0.0027452137

intercepts f4 [1, 23]
00000000: 9883 003d a8ae 1d3c 6669 933d 5c8e eabb
00000010: 1968 3fbc 1ef7 a03d 32c5 35bd 8cda 9abc
00000020: 3d3b 9a3d bdfa 7abd ec11 303b 272a 2a3d
00000030: fbc1 d73c ad9c 58bd 48d2 c13c ffdb 25bd
00000040: 805f 1a3d 90b0 ec3c 1c37 593d 7e10 b53c
00000050: ff08 a43d c5a3 ba3c ce98 eebb
0.031375498 0.009624161 0.071978375 -0.007158084 -0.011682534 0.07859634 -0.044377513 -0.01890304
0.0753083 -0.06127428 0.002686615 0.041544106 0.026337614 -0.052883793 0.02365984 -0.040493008
0.037688732 0.028892785 0.053031072 0.02210259 0.08009528 0.02278317 -0.0072813993

coefficient1 f4 [23, 14]
00000000: 4309 3b3e 61c9 133f f167 6c3e 4130 013e
00000010: c596 51be 66f6 0b3c b17c 413e e272 c9bd
00000020: b252 d23d 326b c63e c51d c03d 7b58 913e
00000030: 5e39 ed3e ee73 a73e a28e a2be f86b 88be
00000040: 52c5 d23e 063e 31bd a216 e6be 8b72 8d3e
00000050: dbbf 14be faa9 6c3e 4457 bc3e 666e 58be
00000060: 1600 6fbe 2d61 8dbe 8cd9 e43e 5e8a 883c
00000070: ab3f 9cbe 4cb6 40be 3bd7 d73e 2ecc ad3e
00000080: 5181 5d3e 4f05 563e a233 31be 0262 01be
00000090: 9a39 893d 9b94 0f3e 149a 84be e58e 8fbe
000000a0: 4c8f 343e dbf8 a03e d092 0d3f 429f 5cbe
000000b0: 82aa d8be 2a35 75be a756 9dbe b56c 7e3e
000000c0: 3dcd 0f3d 52e2 933e f3d8 dbbd 93af ad3d
000000d0: 713e 2a3e 520d ab3e 9fe2 a1bd 77c5 88be
000000e0: 4b3a a9bd fa37 88be af61 71bd 2ca1 453e
000000f0: 4e03 e1be 0829 9fbe 27e4 053e cce7 c1be
00000100: 06bf 57bd 2251 83be 9352 723e 914c bbbe
00000110: ccb7 f83d 6c97 86be eb15 24bd a2ac 89be
00000120: 323b 8abd da1a 493e 5fde ab3e f663 f3be
00000130: bfc6 b3be f717 1a3e 0fe8 ca3e bde8 9c3c
00000140: a83a db3d b944 cb3e 3fdd d33e 6177 ec3c
00000150: 03f1 893e 303d d3be b042 a5be a007 e33d
00000160: a60b ce3d 40bd 9a3e 13f5 963e 7fb9 f8ba
00000170: ae8d dabe f917 d73e 789b 19be 280f 17be
00000180: d0fe 88be ad35 ea3c 4a84 04be bcd8 2e3e
00000190: 270c 59be 54fd 43be dbe3 c23e 3bbe 753e
000001a0: f321 18be e103 9dbe eb89 97bd 4619 08be
000001b0: 31f4 e1be 8ce1 d93d bd18 a13d d850 09bf
000001c0: 935c 56be 08d7 453e 9404 ca3e 29da 303e
000001d0: 697d b7be 9216 d63b 1fad 5cbc f2a2 bbbe
000001e0: 90f6 3d3e 0a37 f33b b099 d63d 6edc b4be
000001f0: 6c71 c5be fc33 8e3e c008 cb3e ca2c 50bd
00000200: 73f8 b13e 00fd 27be 05aa 18be cd7c 63be
00000210: 2c99 e0be 3b77 93be 9f51 cbbd 5495 aebe
00000220: 5743 553e e24e 093f eb1e 92be f301 babe
00000230: 62b1 b0bd b612 59be dea5 43bd c2d8 7ebd
00000240: 4ae3 51be 1ea1 383e 028e 9d3d d2cf 89bd
00000250: c348 d03e e86d e93e 1a49 ea3d 4d67 293e
00000260: b079 f0be 47da a9bd 4c74 2dbe e2fc 813e
00000270: 6df2 e13e ec92 b3be e950 b7be 8b2b c73d
00000280: 2c1c e1bc 8b9f 8dbe 2ea8 af3e 3e0c d0bd
00000290: 0e92 4bbd 6ba9 80be 2ec6 363e 3d7b b63e
000002a0: 77e1 89be be62 8ebe 21a5 0f3e 6eab e2be
000002b0: c778 673e e85d e4be 412b ddbe 273a afbe
000002c0: ba98 733e d7b7 d23e 529f 3f3e 1288 d23e
000002d0: f7db 20be e546 9e3c 8077 43be 3ecd 4c3b
000002e0: f44d 043e 783c 923e 9697 64be 617f bd3e
000002f0: cba8 513e 2a04 13bf 75be 65be d1b2 08bf
00000300: 6620 bbbd dd5d 94be 5184 44be f2f0 f43e
00000310: a41b 8bbe 0625 2ebe e5f9 d63d fa1b d93e
00000320: e0bc 513e d310 183e 3ba5 f43e de04 4abd
00000330: 1b95 cfbe be71 a8be e5eb d8bd 45e4 50bd
00000340: d4d8 743e f0a9 92be a343 423e d64b 3fbe
00000350: e7b6 b73e 49c0 d2be 0192 11be d0bd 16be
00000360: ebb9 1ebe 703a 88be 1207 aabe 88e6 be3e
00000370: 9346 a83e 8eb1 b63e 3212 b53e 4465 8ebe
00000380: bf43 ef3e dbe7 113e 8d03 6ebd 1dbf 2fbe
00000390: 4e38 ec3c 3d0c dcbe a7eb c33e f3dc a63e
000003a0: b166 e53e 6d28 c4be 7c6e 263e ea8f 773e
000003b0: 0661 b5be defa 9b3e 59ad b23d c082 e63d
000003c0: 2b1a 99be cf55 44be 818e 9e3d fa59 843d
000003d0: b807 263e 9aee 73be 1567 e43d 3b13 703e
000003e0: f134 963e 2b14 69be d035 4f3e 22d9 2ebf
000003f0: e187 b33e 4f96 193e 25d1 da3e 1a0b cdbe
0.18265252 0.57729155 0.23086525 0.12616064 -0.2046767 0.008542633 0.18895222 -0.09836365
0.10269679 0.3875366 0.09380678 0.28387818 0.4633283 0.32705635 -0.31749445 -0.26644874
0.41166168 -0.04327204 -0.44939142 0.27626452 -0.14526312 0.23111716 0.36785328 -0.21135864
-0.23339877 -0.27613202 0.44697225 0.016667541 -0.30517325 -0.1881954 0.42156395 0.3394484
0.21631362 0.20900463 -0.17304853 -0.12635043 0.0670044 0.14021532 -0.25898802 -0.28038707
0.17632788 0.31439862 0.55302143 -0.21545127 -0.42317587 -0.23946062 -0.30730173 0.24846156
0.03510784 0.28883606 -0.10734739 0.08480754 0.16625382 0.334086 -0.07904553 -0.26713154
-0.082630716 -0.26605207 -0.05893105 0.19299763 -0.43947834 -0.31085992 0.13075314 -0.3787216
-0.05267241 -0.25647837 0.23664312 -0.36581853 0.121444315 -0.262874 -0.040059965 -0.2688952
-0.06749572 0.1963915 0.33568093 -0.47537202 -0.3511257 0.15048204 0.39630172 0.019153947
0.10704547 0.3970087 0.41379735 0.028865518 0.2694169 -0.4125762 -0.3227744 0.11085439
0.100608155 0.3022251 0.29483852 -0.001897618 -0.42686218 0.42010477 -0.15000713 -0.14751875
-0.26756907 0.028590048 -0.1294109 0.17074865 -0.21196042 -0.19139606 0.38064465 0.23998348
-0.148567 -0.30667022 -0.07399353 -0.13290891 -0.44131616 0.10638723 0.078660466 -0.5363898
-0.20933752 0.19320309 0.39456618 0.17270721 -0.35837868 0.0065334523 -0.01346901 -0.36647755
0.18551087 0.0074223327 0.10478532 -0.35324425 -0.38563097 0.27774036 0.39655113 -0.050823964
0.34759864 -0.16405106 -0.14908607 -0.22215576 -0.4386686 -0.28801903 -0.09927677 -0.34098303
0.2082647 0.5363599 -0.28539214 -0.36329612 -0.08627583 -0.21198544 -0.047765605 -0.062218435
-0.2049686 0.18030211 0.076931015 -0.06729092 0.40680513 0.45591664 0.11439724 0.16543312
-0.4696784 -0.08293586 -0.16938895 0.25388247 0.4413027 -0.3507303 -0.35803917 0.09725102
-0.027479254 -0.27660784 0.34307998 -0.10158585 -0.049699835 -0.25129256 0.17849037 0.35640898
-0.2692983 -0.2780971 0.14027835 -0.44271415 0.22604667 -0.44602895 -0.43197063 -0.34224054
0.2378873 0.41155884 0.1871312 0.41119438 -0.1570891 0.019320915 -0.19088554 0.0031250264
0.12920362 0.2856176 -0.2232345 0.37011245 0.20474546 -0.5742823 -0.22435935 -0.5339785
-0.09137039 -0.28977862 -0.191911 0.47840077 -0.27169526 -0.17006311 0.10496882 0.42404157
0.20482206 0.14850168 0.4778231 -0.049321048 -0.40543446 -0.32899278 -0.10591868 -0.050998945
0.23910838 -0.28645277 0.18971114 -0.18681273 0.3588173 -0.41162327 -0.14215852 -0.14720845
-0.1550061 -0.26607084 -0.3320852 0.37285256 0.32866344 0.35682338 0.35365444 -0.27811635
0.46731374 0.14248602 -0.058108855 -0.17162748 0.028835442 -0.42978087 0.38265726 0.32590446
0.4480491 -0.38312092 0.16253084 0.24175993 -0.35425586 0.30464834 0.0872447 0.11255407
-0.29902777 -0.19173358 0.07742024 0.06462474 0.16213882 -0.23821488 0.11152474 0.23444836
0.29337266 -0.227616 0.20235372 -0.6830007 0.35064605 0.14998744 0.4273769 -0.40047532

intercepts1 f4 [1, 14]
00000000: 2654 d4be 79ec 90be aef9 843d f7a9 9abe
00000010: ba29 9cba b1b0 8dbd c7ed 4c3a 271f 843d
00000020: 44f1 8f3e 468f c43d 63f6 c03e 1446 85be
00000030: 1e50 9dbd e117 8f3d
-0.4147045 -0.28305414 0.06492935 -0.30207798 -0.0011914291 -0.06918467 0.0007817414 0.06451254
0.2811376 0.0959764 0.37687978 -0.26030028 -0.07681297 0.069869764

coefficient2 f4 [14, 8]
00000000: daad 1d3e 10dd efbe 78bb 14bd 1317 193f
00000010: 8afc 8fbe 647f 023e b665 b2be cc3b ee3e
00000020: 77f2 18bf de99 0f3f a037 2d3e 4cfa 80bd
00000030: 2060 91be bc60 fa3e cadf e9bc a52d 74be
00000040: 6919 ed3e 9c85 883e c6ab f6bb 2804 25bc
00000050: 3ed2 00bf b6f0 9abe 9b89 f13e e72e bdbe
00000060: ea32 4abe b8db c4be c3a5 86be b54b 173f
00000070: 15b9 0c3f ebef 5bbe c48a 2cbd d1e3 5136
00000080: 9b56 23bd e943 5c3e 6f8b e1be fda2 12be
00000090: a7fe 0d3f 9526 62be 99a1 b93e 6bdd 8ebe
000000a0: a9c8 eabe 75b5 afbe 675c 7ebe db0a e4be
000000b0: 428d 2cbe 94aa 003f 1fc9 d43e eea5 49aa
000000c0: 6354 7fbe 9e3f bd3b 1942 053e 44fd 09be
000000d0: 73cd 203e a47d a43e d50d bc3e 21ac 8fbe
000000e0: a5ef 15bf f182 933d bda4 8fbc 5930 51be
000000f0: cc1a c2be c790 433e ade6 d13e 7177 7e3e
00000100: f020 393a 10f7 773d b3ed 0e3f 8a10 3cbe
00000110: 1f60 e7bd d47a 7c3e 511e 88be 17ed 43be
00000120: 2659 12be 34b3 7bbc e69e 253f 5015 1c3e
00000130: 3353 6dbe 902d 3ebe 06af f13e 64ae f8bd
00000140: b64f 0cbe f8ce 74bc 5c4b c13e c05a 6bbe
00000150: 7e88 c03c e063 96be 8cc8 193e cbd1 14be
00000160: 87d6 ce3e 2c07 91be fc5b 74be 1a84 393e
00000170: 9f16 c83e 1fd6 2b3e be46 8dbc f7b8 9cbe
00000180: b9dd e2bd 1145 1a3f 4443 d63e 2025 f13e
00000190: ded0 c1bd c570 0bbf 9ba2 b4be 2d2a f83c
000001a0: 1de2 2a3f 132e d53e 2713 13be a2c0 61be
000001b0: afc2 303d 870c b43e 06dc 10bc f342 0590
0.1539835 -0.46848345 -0.036311597 0.59800833 -0.2812236 0.12743908 -0.34843224 0.46529996
-0.5974497 0.5609416 0.1691575 -0.0629774 -0.2839365 0.48901927 -0.028549094 -0.23845537
0.4630845 0.26664436 -0.007527801 -0.010071792 -0.50320804 -0.30261773 0.47175297 -0.36949846
-0.19745985 -0.38448882 -0.2629834 0.59099895 0.5496991 -0.2147824 -0.042124525 3.1276033e-06
-0.039877515 0.2151028 -0.44051692 -0.14319988 0.55466694 -0.2208503 0.36256102 -0.27903304
-0.45856217 -0.34318128 -0.24839936 -0.44539532 -0.1685076 0.5026028 0.41559693 -1.7909955e-13
-0.24934535 0.005775406 0.13013496 -0.1347552 0.15703373 0.32127106 0.36729303 -0.2806101
-0.58568794 0.072027095 -0.017534608 -0.204286 -0.3791107 0.19098197 0.40996304 0.24850251
0.0007062098 0.06053835 0.5583145 -0.18365684 -0.112976305 0.2465623 -0.2658563 -0.19133411
-0.1429182 -0.01536255 0.64695585 0.15242505 -0.23176269 -0.18572068 0.47203845 -0.12142637
-0.13702282 -0.014941923 0.37752807 -0.22983837 0.023502585 -0.29373074 0.15017909 -0.14533155
0.40398046 -0.28325784 -0.23863214 0.18116799 0.3907976 0.167809 -0.017245647 -0.30609867
-0.110774465 0.60261637 0.41848195 0.47098637 -0.094636664 -0.5446895 -0.35280308 0.030293548
0.6675127 0.41636714 -0.14362775 -0.2204614 0.043154415 0.35165808 -0.00884152 -2.62812e-29

intercepts2 f4 [1, 8]
00000000: 5355 25be e7a9 9c3e a505 2f3e 2dd3 3bbe
00000010: f105 db3e 8081 213d 7fbc 673e 939e e3be
-0.1614583 0.30598375 0.17091997 -0.18342276 0.4277797 0.03943014 0.226305 -0.4445692

coefficient3 f4 [8, 4]
00000000: 8998 953e 3daa 12bf 46ce 5cbe 557c 503f
00000010: 4c2c 38bf 3de6 f63c d1d4 323e 1f2a cc3e
00000020: 39eb 32bf af56 a1bd 143f 213f 61a5 4abe
00000030: b0fc a83d cbb6 493f fea1 76bd e805 e33e
00000040: 8c22 783e 978c 843e e6de 0ebe 672f 82bf
00000050: b601 1b3f ba88 393f 224c 25be 32b7 863e
00000060: 4a52 2c3f a94c 3abf 651f 4abd 7d4d 4cbe
00000070: 5218 b3be 8887 803e 6750 c0be e972 c3be
0.29217938 -0.57291013 -0.21563062 0.81439716 -0.7194259 0.030139083 0.17463996 0.39875886
-0.6989017 -0.07877862 0.62986875 -0.1978965 0.08251321 0.78794545 -0.06021308 0.44340444
0.24231929 0.25888512 -0.13952217 -1.0170716 0.60549486 0.72474253 -0.16142324 0.26311642
0.67313063 -0.72773224 -0.049346346 -0.19951434 -0.34979492 0.25103402 -0.37561342 -0.38173607

intercepts3 f4 [1, 4]
00000000: e512 253f abd8 09bd ce6c 29be 2ae3 efbe
0.64481956 -0.033653896 -0.16545412 -0.46853
