UserGuidanceAI/models/BurstSize_120/UserGuidanceAIMLP.onnx (onnx, 202727 bytes, 8 tensors)

coefficient f4 [1920, 23]
00000000: 7b98 91bc 7f62 b93d db16 0dbe b661 b5bb
00000010: e40f fabb 720b 153d b590 053d efcf 75bc
00000020: 2a4b 4d3d 5e8b 6ebc c14e 983c 0e37 60bd
00000030: 06e5 f23c a136 4e3e 1423 b0bd ce8e a23a
00000040: 735c 0fbd de07 0bbd 7fa5 ed3c cc55 853b
00000050: 0a9a ab3d 4b52 793c 4dcc 84bd 907a cb3b
00000060: c385 d23d 6a2a d5bc f4e0 cbbc 27be 64bc
00000070: 8a79 193d 321b d33d 01f1 2abd fb2c 403d
00000080: a4fe 293d b666 b93c 32c4 41bd dbc5 223d
00000090: 7ef4 2f3e baa4 343b d3d5 8dbd 7d51 083a
000000a0: 6338 8e3c 626c b63d e5e3 d13b 3afc 8f3d
000000b0: 640a a1bd feb3 4fbd c19b d63c 7268 1c3d
000000c0: a16d a3bd 6cc4 6fbc 782b 6dbc 2cf0 ac3d
000000d0: 5015 a33c f604 a0bc d168 4b3d 030f 5ebd
000000e0: b9b4 583c 4f0e c7bd de67 903d 8118 253e
000000f0: f8b0 9bbd 5c0d a1bc 2b8d b3bb 5405 3abd
00000100: d34f 093b d88a ed3c 4108 383d e455 e2bc
00000110: 1e26 37bb 677c 52bc b7b6 cb3d a76a afbd
00000120: c66d 3cbc 4e9a 903d 66cb 533d 73f6 453c
00000130: ec6c 663d 6678 c63c f11e fa3c 5949 ac3c
00000140: afba d7bb d9ec 893d cf88 2b3e 659e 5dbd
00000150: cf27 07bd c3df 903c e151 1ebd 6995 c93d
00000160: 395f 303d cebd 243d a2bc 94bd 99b5 1ebb
00000170: fabc d3bc c520 813d 333e 60bd a780 97bb
00000180: 825c a13d 1310 943d 53b9 3bbc 9f36 b53c
00000190: 8457 a23c de31 1b3b 36f1 203d f20f 50bd
000001a0: 17a4 c53d 5db5 243e ad7f c5bd b997 553d
000001b0: 7ba7 58bb 3eca ba3c 740a 203c 49bc acbc
000001c0: 1bd4 9d3d f898 39bc 941f b0bd 14d1 813b
000001d0: f773 9b3d 2e08 3b39 fd5e 173d 3804 d2bb
000001e0: b0b9 2b3c 7237 74bc 7e7a 2dbd b5e6 033c
000001f0: e491 2c3d 7388 213b 3f7e 75bc f9dd b43d
00000200: b4fc d43d 1127 89bd 7ac7 9b3c b18f f73c
00000210: de68 c8bc 4383 80bb 73ab 613d 5cb1 ac3b
00000220: ac63 b6ba fe02 2fbd d855 9c3b 0f90 9a3d
00000230: 2d7a fbbc ecbc 10bd 6906 36bc d911 703c
00000240: c4b8 87bc 91c7 03bd 4f97 e63b 037c 1c3d
00000250: 5143 3e3c 2b9b 81bd ae7a 0bba 5ad6 3f3e
00000260: b668 0ebd 00f9 85bc 72f9 3fbd e33a 61ba
00000270: 9de8 b63b e6b3 db3c 4bdc b73d 8074 b43a
00000280: e288 38bd 906b 18bd 8730 773d ab55 fc3a
00000290: 98a7 0fbd 8957 6bbc 342f 8a3b d8c6 eb3c
000002a0: 215d c23c f801 293d 2215 09bc 274d 533d
000002b0: dd2f 4b3b cbc4 053d e14a 083e fbf7 86bc
000002c0: 243b 0a3d 4726 34bd 3093 8fbd 2f0a 6f3c
000002d0: be38 e23c 0543 0a3c c441 02bc 72ed 80bd
000002e0: 4f55 83bd d0e7 9e3d 7f6a 81bd 5099 033c
000002f0: 6319 1d3d 451a c93d 61c9 7cba 2c06 21bd
00000300: 3594 5d3d e216 2f3d 92b1 373d 3e2e 9b3d
00000310: 22ac ddbb d43d bc3d b525 11bd 1a22 aa3d
00000320: 289c 133d 211e 96bc 7a3d 9a3d 9acd dd3c
00000330: c0e9 1f3d 6e79 1bbd 24c4 4b3c 8577 fcbc
00000340: eb5d c23d 96a2 8b3c 92bc d5bc dbe6 bb3d
00000350: 4115 363c 8c90 ccbc f80f d1bc ae70 fa3c
00000360: f369 23bd c004 313d 4c13 623d 5620 97bb
00000370: 5224 9e3d 2e48 85bd 2838 c5bc bd22 a03c
00000380: 394b 2bbd bc56 953d 55d2 283c 41fd 993d
00000390: ae8a 013c 781b 233d 0e6d 1ebd 3006 5a3d
000003a0: 69ec e43b c103 47bd 5a5b 113d 80cf 673d
000003b0: 29d7 25bd 8516 c53c 8e43 cd3c fe92 293d
000003c0: ab4a dfbc ffe9 753d 386b 6e3d a1bc 8c3d
000003d0: ada3 82bc 5e72 ca3c be98 80bd 7f92 07bd
000003e0: f4f7 243d a3b3 2c3d 7747 b1bc 8407 c23c
000003f0: 490f 0ebc cbd8 813c a7f4 7d3d 3a61 673c
-0.017772904 0.0905199 -0.1377825 -0.0055353297 -0.007631289 0.03638787 0.032608707 -0.0150031885
0.05012051 -0.014559595 0.01859224 -0.054740004 0.029650223 0.20138027 -0.086004406 0.0012402178
-0.035000276 -0.03394305 0.029009579 0.0040690657 0.0837899 0.015217374 -0.0648428 0.006209679
0.10279419 -0.026021201 -0.02488754 -0.0139613515 0.037469424 0.103079215 -0.041733745 0.046917897
0.04150261 0.022631984 -0.047306247 0.03973947 0.1718311 0.0027564005 -0.06925549 0.0005200131
0.017360872 0.08907391 0.006405341 0.0703053 -0.0786331 -0.050708763 0.026197316 0.038185544
-0.079798944 -0.014634233 -0.014475696 0.08444247 0.019907624 -0.019533616 0.049660508 -0.054213535
0.013226681 -0.09719526 0.07051061 0.16122629 -0.076021135 -0.01965969 -0.005479475 -0.045415238
0.002095212 0.02899687 0.044929747 -0.027628846 -0.0027946304 -0.012847043 0.099469595 -0.08565264
-0.011500781 0.07060681 0.051707648 0.012082684 0.05625622 0.024227332 0.030532332 0.021031069
-0.0065835337 0.06734628 0.16751407 -0.054106135 -0.03299695 0.017684823 -0.038652305 0.09842951
0.04305956 0.040220074 -0.07262541 -0.0024217127 -0.025846947 0.063050784 -0.054746818 -0.004623491
0.078789726 0.072296284 -0.011457759 0.022120772 0.019817121 0.0023680846 0.039292537 -0.050796457
0.09650438 0.1608481 -0.09643493 0.052146647 -0.003305881 0.022801515 0.009768117 -0.021085875
0.077064715 -0.0113279745 -0.08599773 0.0039616916 0.07590478 0.00017836757 0.036955822 -0.0064091943
0.010481283 -0.014905797 -0.042353146 0.00805061 0.04213132 0.002464798 -0.014983713 0.088314004
0.10399762 -0.066969045 0.019016016 0.030219885 -0.024464067 -0.0039218976 0.055095147 0.0052701663
-0.0013915203 -0.042727463 0.0047709756 0.07547008 -0.030697906 -0.03533642 -0.011109927 0.014652693
-0.016567595 -0.032172743 0.0070370804 0.038204204 0.011612729 -0.06328424 -0.000532071 0.18734112
-0.03476783 -0.016354084 -0.04686875 -0.00085918437 0.005581929 0.02681918 0.089775644 0.001376763
-0.045052417 -0.037211955 0.060349014 0.0019251605 -0.03507194 -0.014364132 0.004217053 0.02878134
0.023726048 0.041261643 -0.008366855 0.05158725 0.003100387 0.03265838 0.13309814 -0.016475668
0.033747807 -0.043981817 -0.07010496 0.01458983 0.027614947 0.00843883 -0.00795025 -0.06295289
-0.06412756 0.077590585 -0.06319141 0.008032158 0.03835429 0.09819464 -0.0009643045 -0.039312527
0.05409642 0.042746432 0.04484708 0.07577179 -0.0067649046 0.0919148 -0.03543635 0.083072856
0.036037594 -0.018324913 0.07531257 0.027075578 0.03904128 -0.0379576 0.0124369 -0.03081871
0.0949057 0.0170453 -0.026090894 0.091748916 0.011113466 -0.02497127 -0.02552031 0.030571308
-0.039895963 0.04321742 0.055194184 -0.004612009 0.07721771 -0.06507908 -0.024074629 0.019547815
-0.041819785 0.07291934 0.010304053 0.075190075 0.007906599 0.039821118 -0.03867822 0.053228557
0.00698619 -0.048587564 0.03548751 0.05659437 -0.040488396 0.02405859 0.025056627 0.04139995
-0.027257284 0.06003761 0.05820772 0.068719156 -0.015947187 0.024712738 -0.06279133 -0.033098694
0.04027553 0.042163502 -0.021640522 0.023685224 -0.008670636 0.015850445 0.062000897 0.014122302

intercepts f4 [1, 23]
00000000: 7643 e03d 7e0d fe3c 9633 b5bb 31d4 033e
00000010: d568 5b3d 1bdb 483d 7123 503c f414 4f3c
00000020: 1387 8cbc 6605 fd3d 388c 01bd 7f40 de3c
00000030: c333 c83d 30ab 4cbb a27f 413d 6ca1 883b
00000040: f93e b63c f7e7 253d dc0c cfbd 47e2 03bd
00000050: d108 12bd b186 4a3c 1cdc 9b3d
0.10950367 0.031012293 -0.005529831 0.12873913 0.053566772 0.04903708 0.012703762 0.012639273
-0.017154252 0.12354545 -0.031627864 0.027130364 0.09775498 -0.0031229965 0.04724086 0.0041696336
0.022246825 0.040504422 -0.101098746 -0.032198217 -0.03565294 0.0123612145 0.07610342

coefficient1 f4 [23, 14]
00000000: 5330 24be aee2 f7bb 5515 29be 923c ddbd
00000010: 615d e23e 5364 993e 7804 9bbd 9f44 9d3e
00000020: c30b 223e 29ef e53e 8857 2b3e a3fe b73e
00000030: fe54 c73e 1933 de3e 3c4e 45be 09a4 793e
00000040: 40e7 e0be 8252 13bc d9aa 9fbe 0e78 d53e
00000050: d74e b43d e5f5 90bd f6e5 0d3e 34c5 2bbe
00000060: fc9c c03e 21d1 8c3d 66b9 2b3e fb3c 56bd
00000070: b4f4 14be 16b3 b3be 294f 9f3e a6a9 e83e
00000080: 0c06 e53d 06c8 da3e a270 6b3e 7b62 85be
00000090: ec2c 0bbe a7e9 173e ea12 38bd ec0a 8fbe
000000a0: f9fb 3dbe 4ee4 373e 8a39 593e 1af5 a13d
000000b0: d860 d4be d0f1 04be 8127 743e 21b9 673d
000000c0: a99c 69bd b2c1 0bbf 3241 d2be 04a6 d03e
000000d0: fefc 653d 7136 7dbd 6dff b1bd c118 d63d
000000e0: 4d19 8abc b51a 963e 4dae afbd c720 c4be
000000f0: b126 a0be 3eaa db3e a18b d1bb 6204 44be
00000100: b4d4 733e 0784 9b3d bda6 0c3f 8826 9bbe
00000110: 259e 87be f655 5fbe f2c8 e83d ad50 2d3e
00000120: b0cf e9be f1fd 203e 926e c3be 92d3 43be
00000130: bc8a d03e 14e5 2fbd 670a 79bd a907 8c3b
00000140: 660f 23be 1f09 5f3e 72a1 c63e cdf3 45be
00000150: ba54 a9bc 7ccf 313e 4fb9 44be dbab 2b3c
00000160: 07fc 36be 0206 b63d 67a7 3e3e 8f22 13be
00000170: c645 e2be 56f1 043f d79b 27be 12c5 743e
00000180: e7d8 18be 5523 8d3d 7b2a c93e 2e17 b53e
00000190: 0d56 533e 0f24 cb3e 46cd e5bd 7e61 083d
000001a0: 7932 f43d ed0f 9dbe d7fd 07be 8d88 62bc
000001b0: a862 c4be 4e8e e53e bf17 e2bd 51f5 98be
000001c0: 675d 673d e6e4 c13e 56e6 0abe 4c54 0ebe
000001d0: 5ec6 9dbe a803 e43d bcf7 12be 568c 853e
000001e0: 6973 22be a324 a9be bd2a fabe 6eb6 0cbb
000001f0: 1e7c d8ba 2e19 47bd 4c87 993e df54 f93e
00000200: 303c 0abe 1444 54be 4934 05bf 0a4c f03e
00000210: bba6 7b3e c71c f2be 7964 9cbe af29 8cbe
00000220: 266d 953e feca 413e acf0 5cbe 5b24 74be
00000230: 2eb3 823e 45e3 aebd ba0f f7bb b9e5 a5be
00000240: 955f aebd 7d7d 353e 4bf0 f4be a4d4 9fbe
00000250: c7c6 0ebe b1aa 57be a9e8 d2be f6e1 8c3e
00000260: 86dd d23e 7b95 b33d 779e 77bd 6230 eb3e
00000270: 5ad8 a23e 0b0b 903d de48 ef3d c646 c3be
00000280: 66bc c13e e250 733d 9580 363e 2a35 b63e
00000290: d804 07be 541f 0b3e f7a8 6d3e 6f40 d33e
000002a0: 19b6 f8bd 856c 093e 47d0 ed3d 6631 bb3e
000002b0: df0b 47be 219e 02be 9aa9 16bf d601 8d3e
000002c0: bf45 1d3e d235 d23e 30f5 8c3e 66f9 713e
000002d0: 4f25 e93c 6cb4 84be 5279 b9be 338f 9dbe
000002e0: 7c6f b83e d923 a13d cf59 c0bd 7e55 f4be
000002f0: c7d3 abbe 7d78 d9bd a46f 2a3e f5de 203e
00000300: 11d4 e4be f155 103f 225f e23e b1d3 5bbd
00000310: 898c b93e dbdf 1bbd dd6c 293e c2ac c2bd
00000320: f5eb adbe d426 343e 77d9 8c3d d409 2bbd
00000330: 9b8f a63e 9826 88be ca84 4fbc 7b54 1abd
00000340: d164 d23e 83fc 9abe 86c9 44be 2152 003f
00000350: 323e 6dbe a155 903e 8948 973c 0776 0d3c
00000360: a4c4 e0be 7957 c03d f302 ba3e 4b83 b33e
00000370: ff14 e4be 9327 b53e 5226 76be 01b7 52bd
00000380: a349 6dbd 9861 b13e bded fa3d 0cdd fdbe
00000390: 826a b53e 3e88 4bbd 8eda 28be 4a36 d23e
000003a0: e3ef f4bd 5a0f c13e 557a 423d 529f 03be
000003b0: caa2 53bc 8348 5cbe e089 653d ea86 f73e
000003c0: f9da 7cbe d1dd 9a3e 9d8c 213e c6d4 7bbe
000003d0: 9c30 9ebe 7a43 d03d 8b6b f6be 9e73 efbc
000003e0: f29b a93b e583 d6be 01e9 433e 530e 8d3b
000003f0: c55d 793e 47cb 01be 050e 66be 46d6 ad3e
-0.16034059 -0.007564864 -0.16512044 -0.108025685 0.44211867 0.29959354 -0.07569212 0.30716416
0.15824799 0.44909027 0.1673261 0.3593646 0.3893203 0.4339836 -0.19268125 0.2437898
-0.4392643 -0.008991839 -0.31185034 0.41693157 0.088041 -0.07078151 0.13857254 -0.16774446
0.3761977 0.06875826 0.16769943 -0.05230425 -0.14546472 -0.3509757 0.31115082 0.4544193
0.11182794 0.4273073 0.22992185 -0.26051697 -0.13591355 0.14835225 -0.044939913 -0.2793802
-0.18553151 0.17958185 0.21213356 0.079080775 -0.41480136 -0.12982869 0.23843195 0.056573037
-0.05703417 -0.5459243 -0.41065365 0.4075166 0.056149475 -0.061819497 -0.08691297 0.1045394
-0.016857767 0.2931725 -0.08578167 -0.38306257 -0.3127952 0.42903322 -0.006394819 -0.19142297
0.23811609 0.075935416 0.5494192 -0.30302835 -0.26487842 -0.21810135 0.11366452 0.16925307
-0.45666265 0.15721871 -0.38170296 -0.19123676 0.40730846 -0.042943075 -0.060800936 0.004273374
-0.15923843 0.21780823 0.38795048 -0.19331284 -0.020670284 0.17364305 -0.19211315 0.010477985
-0.17869578 0.08887865 0.18618546 -0.14368652 -0.44193858 0.5193075 -0.16368042 0.23903301
-0.14926492 0.06891505 0.39290223 0.35369247 0.20638295 0.39675948 -0.112207934 0.0332961
0.119236894 -0.30676213 -0.13280426 -0.013826502 -0.3835652 0.44835132 -0.110396855 -0.29874662
0.05648556 0.37869948 -0.13564429 -0.13899344 -0.30815405 0.1113351 -0.14352316 0.2608363
-0.15864338 -0.33035764 -0.48860732 -0.0021471041 -0.0016516482 -0.048607998 0.29986036 0.48697564
-0.13499522 -0.20729095 -0.52032906 0.46933013 0.24575321 -0.4728758 -0.30545405 -0.27375552
0.29184836 0.18925092 -0.21576184 -0.23841994 0.25527328 -0.08539442 -0.0075397165 -0.32401827
-0.085143246 0.17723651 -0.4783958 -0.3121692 -0.13943015 -0.21061207 -0.4119313 0.27516145
0.41184634 0.087687455 -0.06045386 0.4593535 0.31805688 0.07033356 0.1168382 -0.38139933
0.3783905 0.059403308 0.17822488 0.35587436 -0.13185441 0.1358617 0.23208986 0.41260096
-0.12144107 0.13420303 0.116119914 0.36561126 -0.19438122 -0.12755634 -0.5885254 0.27540463
0.15358637 0.41056687 0.27530813 0.23630294 0.028460173 -0.259189 -0.36225373 -0.30773315
0.36022556 0.078681655 -0.0939213 -0.47721475 -0.3356001 -0.106186844 0.1664415 0.15710051
-0.44693044 0.56381136 0.44213206 -0.05366868 0.36240032 -0.038055282 0.16545434 -0.09505607
-0.33969083 0.17592937 0.068774156 -0.04175742 0.32531437 -0.26591945 -0.012665937 -0.037678223
0.41092542 -0.30270776 -0.192175 0.5012532 -0.23168257 0.2819033 0.018467205 0.008634097
-0.43900025 0.09391684 0.36330375 0.35061106 -0.4454727 0.35381755 -0.24038056 -0.051444057
-0.057931554 0.3464477 0.12252376 -0.49582708 0.35432822 -0.049690478 -0.16489622 0.41057044
-0.11959817 0.37707025 0.047479946 -0.12853745 -0.01291723 -0.21512036 0.05603969 0.4834512
-0.24692906 0.30247357 0.15776296 -0.24592885 -0.3089646 0.1016912 -0.48128924 -0.029229935
0.005176061 -0.41897503 0.19131853 0.004304686 0.24352176 -0.126752 -0.22466286 0.3395254

intercepts1 f4 [1, 14]
00000000: 222e 093e 6c37 0e3d 7e4b e73d 5c5d 223c
00000010: 8bb0 183e 18d5 d43e dda0 bdbd 0473 bdbe
00000020: be27 87be 1db2 063e ecd9 2abd b12e c6be
00000030: 4ba9 abbe 859b b6be
0.13396505 0.034720823 0.11293696 0.009909954 0.14911096 0.41568828 -0.09259198 -0.37001812
-0.26397508 0.13153882 -0.041711733 -0.38707498 -0.33527598 -0.35665527

coefficient2 f4 [14, 8]
00000000: 21b6 b93e ba2d 61bd ce87 f13e 4936 62be
00000010: cd19 c9be 852a 373e 15dc 6abe 0224 a8be
00000020: 8fb2 6ebe 9795 893e ecd7 cbbd e760 bcbe
00000030: 1a78 213f 404d 163f 1845 f03e 50ed a93e
00000040: afb6 353f d278 20be 8b1f 853e 6144 bb3e
00000050: 31d9 4cbe c9e1 463f 1e1e 4ebe 95af 253f
00000060: 8de2 b63e 86c1 e4be e1a8 a83e 5143 f7bd
00000070: 1c4e c03e 596f 393e 8bd2 9e3e 5649 f93e
00000080: f5f3 0c3e 0e9b d9be 7338 93bd e388 06be
00000090: 0eb7 1abf 20e9 b7be 15da b73d f760 143f
000000a0: 77d0 b0be 66b7 31be 6ddc 0d3f 78fc fd3d
000000b0: 4e03 5f3e f75d e33c 5153 093f 731d d23e
000000c0: 8bd7 b5be ddd9 143f 4c01 843e e778 54be
000000d0: eae0 87be 10ae 9cbe 4634 243e e774 2e3e
000000e0: 26d1 533e 8fe6 c93e 1442 3ebf 3a39 c1bc
000000f0: c9bb b53e a990 2d3e a2f8 093f 437a 02be
00000100: 0fef b7be 8a3a 99be 14b1 b83d 2b1f adbd
00000110: 17e6 183f de6d 053f a87f d93e dff2 8c3e
00000120: de59 683d 5b4c 983e 548e 20bf b90f e73e
00000130: 554c c6bc 7a9c 0abf 8ce7 783d 8c44 a43d
00000140: 3780 e23e 211e 17bc a464 b6be 5a9f fcbe
00000150: 98eb e4be d048 c7be 3664 e23e 9cf6 e83e
00000160: 248e 1c3f 0620 983e a47e 8cbe fb14 c4bd
00000170: 366e 923b 3e44 e43e e5f7 0ebf e15d 1abf
00000180: 0224 a53e 282d dc3e ca2f f83e 24a9 563e
00000190: d17e 73be 1d60 613e 4936 e73e 07a3 aebe
000001a0: 7650 34be 1d4d ad3e 1f94 97be 46d5 093f
000001b0: ea51 f0be d0a7 24be 11d5 d43d 3dbb 97bd
0.36271766 -0.05497525 0.47173923 -0.2209102 -0.39277497 0.17887314 -0.22935517 -0.32839972
-0.23310302 0.2687194 -0.09953293 -0.3679268 0.63073885 0.58711624 0.46927714 0.33188868
0.7098188 -0.1567109 0.26000628 0.36575606 -0.20004727 0.7768827 -0.20128676 0.6472104
0.3571972 -0.44678897 0.32941344 -0.120733865 0.37559593 0.18108882 0.31020007 0.48688763
0.13764937 -0.4250111 -0.07188501 -0.13138156 -0.6043557 -0.35920048 0.08977143 0.57960457
-0.34534046 -0.17355117 0.5541447 0.1240167 0.21778604 0.027754767 0.53642756 0.41038093
-0.3551601 0.58144933 0.2578224 -0.20749246 -0.26538783 -0.3060155 0.16035566 0.17036782
0.20685253 0.39433715 -0.7431958 -0.023586858 0.3549483 0.16949715 0.5389501 -0.12741952
-0.35924575 -0.29927474 0.0901815 -0.084532104 0.5972609 0.5212077 0.42480206 0.27529046
0.05672633 0.29745755 -0.62717175 0.45129183 -0.02420632 -0.54145014 0.060767695 0.08020887
0.44238445 -0.009223492 -0.35623658 -0.49340326 -0.44710994 -0.3892274 0.4421708 0.45500648
0.6115439 0.29711932 -0.2744037 -0.09574314 0.0044687046 0.44583315 -0.5584701 -0.602995
0.32254034 0.430032 0.4847396 0.2096296 -0.23778845 0.2200932 0.45158604 -0.34108755
-0.17608818 0.33847895 -0.29605195 0.53841054 -0.46937495 -0.1607964 0.10392202 -0.0740876

intercepts2 f4 [1, 8]
00000000: 9528 a33e e5b9 f0be 6c21 3c3e 391e 8d3e
00000010: 6861 e83e ad91 15bf 318f ce3e af28 bf3e
0.318669 -0.47016826 0.18372124 0.2756212 0.45386815 -0.5842541 0.4034362 0.37335727

coefficient3 f4 [8, 4]
00000000: 1934 163d 302f 553e adfa ecbe 50fe cfbe
00000010: 5da2 67bf 9874 b53e 7436 38bb a327 823e
00000020: 95dd b63e 0d60 433f 94e0 2b3f ef4f 64be
00000030: 9029 aa3e 3357 563f 5cc6 0e3e 543a f5bd
00000040: 1874 5e3e 4082 1bbf 5e9d acbe cc3b 57bb
00000050: d664 0b3f f77a 80be 6d62 1ebf edd2 edbb
00000060: 3903 94be 113c 38bf d0e9 083f 8c1f ec3e
00000070: bc07 163f 565b 37bf e0c7 3e3e fcc8 7cbf
0.036670778 0.20818782 -0.46285 -0.40623713 -0.9048212 0.35440516 -0.0028108628 0.25420865
0.3571593 0.76318437 0.67139554 -0.22296117 0.33234835 0.83726805 0.13942856 -0.11974016
0.21723974 -0.6074562 -0.33713812 -0.0032842038 0.5445074 -0.25093815 -0.61868936 -0.0072578103
-0.2890871 -0.71966654 0.5348177 0.46117818 0.5860555 -0.7162374 0.18630934 -0.9874418

intercepts3 f4 [1, 4]
00000000: 220d 29bf 093f 0e3f 2fe6 27bc 2dd4 0bbf
-0.66035664 0.55564934 -0.010247751 -0.5462063
