UserGuidanceAI/models/BurstSize_90/UserGuidanceAIMLP.onnx (onnx, 153167 bytes, 8 tensors)

coefficient f4 [1440, 23]
000000 f9 a8 df 3d 02 2b 09 3d 0f c5 5a be 16 94 6e bc
       0.10920901 0.03348828 -0.21364234 -0.014561674
000010 30 d5 44 be 02 82 95 3d d7 c1 a9 3b 65 0e 70 3c
       -0.1922195 0.07300188 0.005180578 0.014651869
000020 98 a2 a0 bd d0 69 fd bd d1 42 19 3b 83 4e 44 bd
       -0.07843512 -0.12373698 0.0023385773 -0.047926437
000030 57 37 08 3b 62 3c 31 3e 16 9a 8f bb 8e b0 d2 3c
       0.0020784938 0.1730819 -0.004382382 0.025718953
000040 c5 ec 10 3d 37 23 70 bd 9a dc 4e bd c8 8f 2b be
       0.03538205 -0.058627333 -0.05050335 -0.16754067
000050 69 84 85 3e 65 d0 62 3d ed 5c c2 3c 0f a1 1a 3e
       0.26077583 0.05537452 0.023725951 0.15100501
000060 35 eb 0b 3d 26 d2 b4 bd 56 2e 35 bd 0f 5b 53 be
       0.034159858 -0.08829145 -0.044233643 -0.20640205
000070 03 1f 1a 3d 76 4e c5 3d 4f 46 1d bd ad 10 74 bd
       0.03762723 0.09634106 -0.03839713 -0.059586216
000080 ba 19 89 bd 59 5b 1b 3c 14 d0 b6 bc 54 42 cc 3b
       -0.0669436 0.009482228 -0.022316016 0.006233493
000090 4e a8 0c 3e 71 f2 83 3d 7e dc 8f bc 3c 94 63 3d
       0.13736078 0.064427264 -0.017561194 0.05556129
0000a0 d0 ef dc 3b 58 76 21 3d e0 92 d4 bd fc 57 68 3e
       0.006742455 0.039419502 -0.10379577 0.22689813
0000b0 fe 8e 78 bd 67 d4 09 3d e1 0f 29 3e 3e 15 43 bd
       -0.060683243 0.03364983 0.16509964 -0.04762768
0000c0 55 1f 0f be 2d 61 1c bd db ae 57 be bc c6 bc 3d
       -0.13976796 -0.03817861 -0.21062796 0.09217593
0000d0 db 03 3f 3c 7d eb 9b bc 46 65 60 bd 53 29 3b be
       0.011658634 -0.019033188 -0.054784082 -0.18277483
0000e0 f4 0b 06 3c e7 c6 a8 bd 21 b6 46 3d 81 ca 03 3e
       0.008181561 -0.082410626 0.048513535 0.12870218
0000f0 bd 38 9a bc db a7 33 3d 77 1a 55 3d b3 27 41 bd
       -0.018825883 0.04386125 0.052027192 -0.047157
000100 d4 41 5f bd 75 a6 72 bd 00 ad 42 3e 81 51 f8 ba
       -0.054506138 -0.059240777 0.19011307 -0.0018945188
000110 b8 64 c4 3d 3c f6 c9 3d d0 02 a3 3b 54 d9 1a be
       0.09589523 0.098614186 0.0049747005 -0.15121967
000120 02 ed 21 bd 77 fe 0f be da a1 7f 3d 30 85 96 3b
       -0.03953267 -0.14061914 0.062410213 0.004593514
000130 1c bf 83 3d 02 67 95 bd 8f 5a b9 bd a9 46 d0 3c
       0.064329356 -0.07295038 -0.09050476 0.025424318
000140 fc 7d 0c 3d 50 de 6b 3d ee 2b df 3d ac 88 bf 3b
       0.034299836 0.05758506 0.10897051 0.00584515
000150 47 5a 03 3c 34 75 b8 3d eb f5 df bc 46 3b 86 3d
       0.008017129 0.0900673 -0.027338943 0.06554274
000160 f4 58 59 bd d6 54 48 3e 32 74 72 bd 1c 5b b2 3d
       -0.053063348 0.19563612 -0.059192844 0.08708784
000170 a8 5c 99 3d a9 5c 0d bd de 04 f0 bd 20 1e 07 bd
       0.07488376 -0.034512196 -0.11719678 -0.032987714
000180 2c 85 00 be 90 7c 9e 3d 1f e4 86 bc 53 27 7b 3c
       -0.12550801 0.07738602 -0.016466198 0.0153292
000190 16 a3 91 bd b6 fe ca bd 8a fe 42 3d b1 f8 7d bc
       -0.07111184 -0.099118635 0.04760603 -0.015501187
0001a0 0f 28 ac 3d a0 1d cf 3d 34 d8 29 bd 85 e2 97 3d
       0.08406078 0.101130724 -0.041465953 0.07416252
0001b0 ea 3c 8e 3d 0b d1 61 3d 6a 26 ab bc 76 8a fc bd
       0.06945212 0.055131 -0.02089234 -0.12331097
0001c0 c2 ee 7a 3e c6 8f 1f ba 57 87 bd bc 56 76 c1 3d
       0.24505141 -0.00060867926 -0.023135824 0.09446399
0001d0 20 8f 8d bc 53 87 65 bd 81 8d 9f 3c ab 9c 58 be
       -0.017280161 -0.05603726 0.019476654 -0.21153514
0001e0 15 eb 1d 3c e8 26 d3 bc b7 25 42 bd c6 4e b0 bd
       0.009638567 -0.025775388 -0.04739925 -0.08608775
0001f0 78 26 21 bd 01 ee aa 3c 51 75 50 3b f6 d3 94 3d
       -0.039343327 0.020865442 0.0031808207 0.07266991
000200 eb 4f c4 3c 99 84 08 bc 26 6f 05 3d 2f b1 db 3d
       0.02396389 -0.008332395 0.032576703 0.107271545
000210 5f f2 db 3c 5b e1 30 bd 04 1f 84 bd e6 07 24 3e
       0.02684897 -0.043183666 -0.06451228 0.16018638
000220 ec 15 b4 b9 ab 93 a4 3c c9 71 ce 3d b8 1f f9 bc
       -0.00034348608 0.020089945 0.100802965 -0.030410632
000230 3b 6e a2 bd 09 dd 7f bd fd 38 53 be 71 b7 a6 3c
       -0.07931181 -0.062466655 -0.20627208 0.020351144
000240 1d 70 07 bd 6a be 2d bd b4 67 c6 bd 6e f4 40 bd
       -0.033065904 -0.04241792 -0.096877486 -0.047108106
000250 d3 d2 45 3c d2 1a 7c bd 8c 3d db bc 90 51 dd 3d
       0.01207419 -0.061549015 -0.026762746 0.108065724
000260 27 10 29 3c 62 f1 98 3a f0 0e 0b 3d a7 32 87 3d
       0.010318792 0.0011668617 0.033949792 0.06601458
000270 b2 63 b7 bc 3e 86 b3 bd 2e 88 8c 3e 46 b7 04 bc
       -0.022386406 -0.08765839 0.27447647 -0.008100336
000280 8f 31 37 bb f0 b6 3c 3d 5f 10 24 bd 27 a6 27 bd
       -0.0027953123 0.0460729 -0.040054675 -0.04092994
000290 b6 46 62 bd 7f 84 55 be 19 65 fa 3b cc 41 a3 3c
       -0.055243216 -0.20851324 0.0076414463 0.019928835
0002a0 95 46 cc 3c 32 da 6e bd 8b f2 b4 bd 6b 36 9c 3d
       0.024936 -0.058313556 -0.08835324 0.07627567
0002b0 12 ef 90 3c 28 dd af 3c a2 06 3e 3d 2c fa 48 3d
       0.017692123 0.02146776 0.046393044 0.049066707
0002c0 27 5b 27 3d 15 fd cc 3c c6 61 d1 ba 8f 21 f4 bb
       0.040858414 0.025023023 -0.0015974573 -0.0074502896
0002d0 bf 7a bf bd ef 06 2b 3e 5b 73 c6 bb 01 2e e2 bc
       -0.09349584 0.16701864 -0.006056232 -0.027609827
0002e0 3e d2 90 3c 22 e9 c8 3a 3c cf e7 bd aa bd 40 bc
       0.017678376 0.0015328268 -0.11318824 -0.011763969
0002f0 fd 3b 13 be c5 8b f2 3d b5 5f c5 bb af ec 3c bd
       -0.14378352 0.11843065 -0.006023372 -0.046124157
000300 c1 4a 3e bd 55 26 67 bc 2d 0b 7b 3d 7f 83 4d 3d
       -0.04645801 -0.01410826 0.061289955 0.050174233
000310 50 16 df bc 0a d6 05 3c 23 03 d7 3c 9b 8c 76 3d
       -0.02723232 0.008168707 0.026246613 0.060192686
000320 08 16 c9 3d 82 58 97 3d 37 38 37 3d 6b e7 ab bd
       0.09818655 0.073899284 0.044731345 -0.08393749
000330 d5 d8 38 3e e0 4e 39 bd 38 25 82 3d 4b a6 cc 3c
       0.18051465 -0.045241237 0.06354755 0.024981638
000340 5d fd d3 3c ff 1e 1e bc e0 de 37 bd 48 ee b6 bd
       0.025877649 -0.009650945 -0.044890285 -0.08932167
000350 a6 04 44 3d b3 55 13 bd 12 d3 15 bd ab d2 b1 bd
       0.047855996 -0.0359704 -0.036578245 -0.0868276
000360 d5 f5 ce bd fd 6b 96 3d dc 1c bc 3c e7 f3 36 bc
       -0.101054825 0.07344816 0.02296298 -0.011166549
000370 50 49 c2 3c 81 37 98 3b 8d 34 6c bd 8b 9e 92 3d
       0.023716599 0.0046452885 -0.057667304 0.07159146
000380 c7 f3 2b 3d 62 73 47 3d 7d ca f3 bd 31 ed 7c 3e
       0.04198053 0.048694022 -0.11903856 0.24699856
000390 c3 95 5e 3c cb b8 e4 3d 18 4b b7 3c 57 dd d0 bc
       0.013585511 0.11168059 0.022374675 -0.025496168
0003a0 2f 1a c3 bc 9d fe 83 bd dd 23 1e be 66 fb cf 3d
       -0.023816196 -0.06445048 -0.15443368 0.10155372
0003b0 42 2a 67 bd 62 31 d0 3b 7d 1f b8 bd 29 59 90 bb
       -0.056436785 0.006353543 -0.08990381 -0.00440516
0003c0 f4 6e bd bb b0 55 bd 3c 28 80 46 3d d7 90 23 3d
       -0.005781049 0.023112148 0.048462063 0.039933052
0003d0 cb 06 91 3d a4 50 0a bc b7 c5 05 bd fd a1 61 3d
       0.07081374 -0.008442078 -0.03265926 0.055086125
0003e0 eb 09 05 3d 33 62 9b bd df ef 10 3e ae b2 01 3d
       0.03248016 -0.075870894 0.14154004 0.031664543
0003f0 c6 e0 56 3d ae 2d bb 3d c8 65 a6 bb 20 d2 8c bc
       0.052460454 0.09139572 -0.0050780512 -0.01719004

intercepts f4 [1, 23]
000000 4f 5a a3 bd c7 c6 81 3d 31 b4 ff 3d 1e 68 7e bc
       -0.07976209 0.06336742 0.12485541 -0.015527753
000010 f0 01 85 3d 6d da 4e 3d c8 dc 29 bc 6f c7 17 3d
       0.0649451 0.050501276 -0.01036758 0.03705543
000020 b0 b4 b5 3d bf e2 8b 3e a2 48 62 3c 4b 3b 3c 3e
       0.08872354 0.2732143 0.013811262 0.18381993
000030 c7 85 93 bd 08 b8 a2 bd 8c 43 45 bd 18 ed b5 bd
       -0.072032504 -0.079452574 -0.04816012 -0.08883113
000040 5a 34 9b 3c 95 6a 31 3d 57 ce 69 bd a8 1c 36 be
       0.018945862 0.043314535 -0.057081547 -0.17784369
000050 72 b9 00 bd 1b 39 18 3e 39 6c 1a 3d
       -0.031426854 0.14865534 0.037700865

coefficient1 f4 [23, 14]
000000 9e 43 63 be bd 55 78 be 5d 46 29 be 3a ec 06 3e
       -0.22193763 -0.24251457 -0.16530748 0.13176051
000010 d9 3b 02 3c a0 a4 12 3e bb 3c 2b 3d 4f e8 b2 bd
       0.007948839 0.14320612 0.041805964 -0.087357156
000020 c6 40 de be de ee a7 bd 41 d7 a4 3e bd 7b 65 3e
       -0.43408793 -0.08199857 0.32195476 0.22410484
000030 62 2a c6 3e 65 89 86 3e 8c 55 12 3e b5 5b 23 bf
       0.3870421 0.262767 0.14290446 -0.6381181
000040 ad de 10 be 7d 58 25 be 14 ec 6f be ce 7a 0a be
       -0.14147444 -0.16147037 -0.234299 -0.13523409
000050 7a 9f 98 bd c6 53 47 3e ba 97 80 bd de b1 11 3e
       -0.07452293 0.19465551 -0.062789395 0.14228007
000060 88 31 f3 3b 3d 62 09 3e 3e 8e a1 3e 09 27 41 bd
       0.007421676 0.13416381 0.31553835 -0.047156367
000070 a8 7e c9 3e 24 f3 8a be 88 a0 8a be 1e ba 39 3f
       0.39354444 -0.27138627 -0.270756 0.7254962
000080 3f cd a6 bd b2 1a 81 be b9 3c 49 3d e8 2b c2 be
       -0.08144616 -0.2521568 0.049130175 -0.37924123
000090 d9 f5 44 be f4 04 56 be 6f 3d 1a bf 90 7e 11 be
       -0.19234408 -0.20900327 -0.6024999 -0.14208436
0000a0 04 ef cd be 52 3e 93 3e 38 2f f8 3e d8 91 09 3e
       -0.40221417 0.28758484 0.48473525 0.13434541
0000b0 69 db 6e 3e 4e f1 c0 be 52 e5 00 bf 07 4b 4a 3e
       0.23325886 -0.376841 -0.50349915 0.19755183
0000c0 07 ec 8f be e8 73 80 3e 0d 5c ec 3d aa 71 57 be
       -0.28109762 0.2508843 0.11540995 -0.21039453
0000d0 91 53 48 3e 6f 2d 03 bf 13 52 02 3e f4 a1 cf be
       0.19563128 -0.512412 0.12726621 -0.40553248
0000e0 c1 0a e0 bc f2 b3 50 3e 22 22 8a 3e 98 c1 d6 be
       -0.027348878 0.20381144 0.26979166 -0.41944575
0000f0 39 6e 2b 3f 04 e3 cd 3e 35 13 a5 be 89 55 a3 be
       0.6696506 0.40212262 -0.32241216 -0.31901196
000100 fe 40 71 bb 62 f2 af 3d 28 c0 fb 3e 9c 35 15 3f
       -0.003681242 0.08591153 0.4917004 0.58284926
000110 01 06 8a bc 07 df f4 3e 93 38 e8 3e 2b a6 46 3e
       -0.016848566 0.47826406 0.45355663 0.19399326
000120 94 47 74 3e eb 89 eb be 6f 4c 9e bd 9b 93 54 3e
       0.2385543 -0.4600366 -0.07729422 0.20759432
000130 98 b7 f0 3d c0 1a d3 bd a6 d5 64 bd 3e 03 d6 3d
       0.11753768 -0.103078365 -0.055867814 0.10449837
000140 b9 3f ee 3d d5 8d 04 bf 73 9e 0e bf d1 1c 92 be
       0.11633248 -0.5177892 -0.55710524 -0.2853761
000150 58 43 95 3e db 1e e9 bd 46 47 5d be a6 98 37 be
       0.29152942 -0.11382838 -0.2160922 -0.17929325
000160 da 19 9b 3e c8 16 bf be 1e 0e 87 be 2a 34 09 be
       0.3029316 -0.37322068 -0.26377958 -0.13398805
000170 c2 87 6f be ca 8f 29 3f 61 b0 8e 3e 73 14 0b 3e
       -0.23391631 0.6623503 0.2786894 0.1358202
000180 e2 aa 22 bd 8a 6e f0 be 58 60 10 bf 7a 96 a3 be
       -0.039713748 -0.46959335 -0.5639701 -0.31950742
000190 17 da 04 3f ff 85 5d 3e 42 56 2d be 22 dc 8f 3e
       0.5189528 0.21633147 -0.16927436 0.28097636
0001a0 79 43 b8 be f6 e8 e0 3e d0 ee 07 3e f2 c8 7c bd
       -0.35988978 0.43927735 0.13274693 -0.061715074
0001b0 98 4c 19 bc 2f e9 af bb 5c db 2b be fb 53 8e bc
       -0.00935664 -0.005368374 -0.16782898 -0.01737403
0001c0 71 03 bc be a2 70 bf 3e 47 c9 c4 3e f6 39 84 3d
       -0.36721376 0.3739062 0.38434812 0.06456368
0001d0 43 67 1c 3e 90 ca 82 3d a9 ef 9f 3e fc bd 4b 3e
       0.15273766 0.06386292 0.31237534 0.19896692
0001e0 30 6d eb ba 4e 6e 12 3d b7 3d b5 3e bd 9f ea 3e
       -0.0017961618 0.035749726 0.35398647 0.45824996
0001f0 12 0e bc 3e 78 ba 08 3f 04 2e 68 3e 41 c5 e3 3b
       0.36729485 0.5340953 0.22673804 0.0069510047
000200 80 9e 8d be 93 09 91 3e 31 9c 91 3e ba de e9 3d
       -0.27659988 0.28327617 0.28439477 0.11419435
000210 da 81 91 3d d3 ee 3a be 6d 45 9c 3e ed ac 0e 3f
       0.07104845 -0.18255167 0.30521718 0.55732614
000220 b0 21 85 3e fc 2f aa be 1b 57 fc 3d 24 33 d4 3e
       0.26002264 -0.33239734 0.123213015 0.41445267
000230 e4 85 8d 3e 40 68 cc 3e 92 60 8b 3e c0 8c c7 be
       0.27641213 0.39923286 0.27222115 -0.3897457
000240 40 bc 33 be c5 e7 11 3e 00 0c b8 3e ec dd 85 be
       -0.1755228 0.1424857 0.35946655 -0.26145875
000250 c1 33 0c 3e 9a 24 2d be 23 ab 5b 3e eb d8 33 be
       0.13691618 -0.16908494 0.21452002 -0.17563216
000260 73 04 ad 3d f0 eb b0 be f8 44 95 be 77 fd ab bd
       0.08448114 -0.34555006 -0.2915418 -0.08397954
000270 9b 2a e0 3b 4b 95 ee 3e 3c 9d 80 be 05 6a dd 3e
       0.0068410165 0.46598276 -0.2511996 0.4324495
000280 b6 3c 2d 3e 02 a6 29 3e c1 b6 60 3e 02 76 85 3e
       0.1691769 0.16567233 0.21944715 0.26066595
000290 09 88 ae 3c 26 84 02 bf 7f 9a eb bd d5 ef 93 3e
       0.021305101 -0.5098289 -0.11504077 0.28893915
0002a0 d8 85 ec 3e 23 ae 42 be b2 cb f9 be 5a 8d a9 3c
       0.46195865 -0.1901174 -0.4878822 0.020697284
0002b0 4b 4b a0 be cf b1 4d be da ce 38 be e1 6b a8 3e
       -0.31307444 -0.2008736 -0.18047658 0.32894805
0002c0 dc fc cc 3e 63 43 16 3c 62 b7 fa be 9d b3 9a be
       0.40036666 0.00917134 -0.48968035 -0.3021516
0002d0 03 07 0d bb 97 7b 97 3d 26 16 a7 3d 9f 5e 01 3f
       -0.0021519072 0.0739662 0.08158521 0.50535005
0002e0 16 3e 69 be b5 4e 94 be 21 cb 57 bd 28 e4 06 be
       -0.2277759 -0.289663 -0.052683953 -0.13172972
0002f0 1b 02 57 3e 37 13 a6 3e 39 92 d1 bd d6 ff 63 be
       0.20996897 0.32436535 -0.10232968 -0.22265562
000300 c9 e7 2e 3e 44 c3 f9 3e 72 ff c2 3e c0 ec bc 3d
       0.17080607 0.48781788 0.38085514 0.09224844
000310 5b d2 cd 3e 5e 74 90 3e c1 cf ed 3e 3e 0b 57 be
       0.4019955 0.2821378 0.46447566 -0.21000382
000320 22 24 a5 3e e3 20 c1 bb 67 a4 52 3e 2a 99 06 be
       0.3225413 -0.005893813 0.20570527 -0.13144365
000330 38 35 a2 bb d3 20 c5 3e 6b 35 32 bd 35 47 a5 bd
       -0.004950192 0.38501605 -0.043507975 -0.08070222
000340 a3 fd 5a bd 3b 87 88 3e ad ec 43 be fd fc 88 bd
       -0.053464543 0.26665673 -0.19133253 -0.06688879
000350 ab f4 a9 bc 1f a6 a2 be c7 95 40 3e 9d 7b 0d 3f
       -0.02074655 -0.31767365 0.18807136 0.55266744
000360 51 40 6e 3e d3 3f 19 bf 1d b8 c2 3e c8 da 09 bf
       0.23266722 -0.59863013 0.38031092 -0.5384946
000370 6d aa 7d be 8d 37 45 bc e6 85 86 bb 33 0c 4a be
       -0.24772044 -0.01203717 -0.0041053174 -0.19731216
000380 64 3c a7 be cf 58 9d be ab f0 c5 be c1 d3 f1 3e
       -0.32663262 -0.30731818 -0.38660178 0.47231868
000390 80 de bf bd 8f c2 01 3f ff 41 3c 3e e1 f9 0f 3e
       -0.093686104 0.506875 0.1838455 0.14060165
0003a0 8e 47 dc be 9d 04 84 be d4 90 9d be 3b b1 4e 3d
       -0.43023342 -0.2578477 -0.30774558 0.05046199
0003b0 41 0b 70 be d5 c7 35 3c 58 c2 bd be 2b 5b 15 3e
       -0.23441793 0.011095007 -0.37062335 0.14585559
0003c0 16 1d 12 bf c6 c5 6f 3e b9 93 80 be 46 d1 cd be
       -0.5707563 0.23415288 -0.25112703 -0.40198725
0003d0 d1 22 99 be 7e f2 4f 3e 76 99 0d 3e 9b c8 ff 3e
       -0.29909375 0.20307347 0.13828072 0.49957737
0003e0 bd 38 da be c8 9e c5 3c 8a 45 e7 3d 4c ec 63 3d
       -0.42621413 0.024123564 0.112925604 0.055645272
0003f0 52 74 a6 bd be e1 4b 3e 3a 10 10 3e 81 4c 7a 3e
       -0.08127655 0.19910333 0.1406869 0.24443246

intercepts1 f4 [1, 14]
000000 a1 f4 3b 3e 13 b9 66 3e b4 03 80 3e 29 55 74 3e
       0.18355037 0.22531538 0.25002825 0.23860611
000010 6e e0 32 be 69 ea e0 3d 1f d9 f8 bc d4 b8 e2 bc
       -0.17468426 0.1098221 -0.030376969 -0.027676024
000020 a6 2c c2 bd 3d 91 ce 3e fb cc 24 bd 01 bc a0 3d
       -0.09481172 0.40345183 -0.040234547 0.07848359
000030 dc f5 6f 3d 25 75 2e be
       0.05858408 -0.17036875

coefficient2 f4 [14, 8]
000000 df 2a 79 be 9e 40 db bc 26 24 f4 3e d7 7d dc be
       -0.2433276 -0.02676421 0.4768383 -0.43064758
000010 fd c4 2d 3f 5f fb bb bd fe b7 97 be 9d 12 28 3c
       0.67878705 -0.091788046 -0.29632562 0.010258344
000020 1d 1f 9c bd 5f 33 61 bd bf 1c 14 be 14 b1 09 bf
       -0.07623122 -0.054980632 -0.14464091 -0.53785825
000030 46 f4 07 3f 1b 39 c9 be e3 73 17 3f 4a 1c b3 3c
       0.53107107 -0.3930138 0.59161204 0.021864075
000040 60 57 f4 3d d6 e3 b9 be bd a1 a2 be c9 f2 34 be
       0.11930728 -0.36306638 -0.31764022 -0.1767074
000050 34 23 56 3e a7 58 94 bd 44 ab 56 3e cc db 0a be
       0.20911866 -0.072434716 0.2096377 -0.13560408
000060 b3 d6 74 3e c7 b5 de 3c f5 91 0f 3f c7 fe 21 bf
       0.23910026 0.027186288 0.5608209 -0.63279384
000070 0d 8c e9 bd 09 09 5e 3e 40 1d c0 3c 74 99 61 bd
       -0.11403666 0.21683134 0.023451447 -0.055077985
000080 d1 6c 21 be 0f 25 fc 3d 75 2b 2a 3f 1f e7 4a bf
       -0.15764166 0.12311756 0.6647256 -0.7925891
000090 91 c7 9c bb 10 b6 37 3f fd 98 5a bc 4f 52 28 3f
       -0.0047845324 0.7176218 -0.013342139 0.6575059
0000a0 4e ce 4d 3f df 6b 5d 3e 35 00 12 3c 6c d4 98 be
       0.8039292 0.21623181 0.008911182 -0.29849565
0000b0 5e ca 25 bf aa 51 d9 3d a6 49 64 3b 07 b2 37 bd
       -0.6476191 0.10611279 0.0034833937 -0.044847514
0000c0 63 38 49 bc 24 ff d4 3e 6c 29 05 bf 43 c8 4a 3d
       -0.01228151 0.41600907 -0.5201633 0.04950739
0000d0 ba 8d 99 be 3b cb 0d 3f 21 dc 6e 3d c5 d1 98 be
       -0.2999094 0.5538823 0.0583154 -0.2984754
0000e0 05 c0 3e be a9 43 36 3d 24 30 a0 be 38 4e cb 3d
       -0.18627937 0.04449812 -0.31286728 0.099270284
0000f0 ca e8 2e 3f 33 dd 31 be ca 64 b3 3e bf 9e 23 bd
       0.6832396 -0.17369537 0.35037833 -0.039946314
000100 c7 50 8c 3e 9a 8c 4e be 43 78 26 bf d3 e8 6d 3e
       0.27405378 -0.20170823 -0.65027255 0.23233347
000110 38 dc 20 bd 82 13 47 bf 10 8b 54 be 91 17 0c bf
       -0.039272517 -0.7776414 -0.20756173 -0.5472346
000120 5c 09 0e be 50 60 e3 bd e4 00 cb 3e eb 86 c0 3d
       -0.13870758 -0.111023545 0.39649117 0.094007336
000130 c9 87 b6 3e d2 75 4c 3e 71 9f ba be b1 70 02 bf
       0.3565047 0.1996682 -0.3644977 -0.50953203
000140 27 82 1f bf 44 2e 5c 3f d8 99 92 be f5 8e b6 3d
       -0.6230797 0.86008096 -0.28632998 0.08913986
000150 f4 75 19 3c 09 f1 6f be d2 57 23 3f 9b 0a a9 be
       0.009366501 -0.23431791 0.6380588 -0.33015904
000160 4f c3 9c be b8 e3 a7 3e 20 99 59 3e e0 0e 01 3f
       -0.3061776 0.32790923 0.21249819 0.5041332
000170 fb 70 55 3e 2c bb ca 3e 56 59 00 bf 36 ec 31 3e
       0.2084388 0.39595926 -0.50136316 0.17375264
000180 ce 0f d3 be fe 36 f0 3d ec 27 c2 3e d7 d5 b8 3e
       -0.41222996 0.11729239 0.37921083 0.36100647
000190 f5 cc 80 bd 58 7b d7 be 28 ea 18 bf cf fc 12 3f
       -0.062890925 -0.4208629 -0.59732294 0.57417005
0001a0 4f 45 50 3f d1 1f 5f bd 5d 3a 12 3e e8 3b 0b 3e
       0.81355757 -0.054473702 0.14280076 0.13597071
0001b0 a7 a8 07 bf 76 82 0f bf f0 fa eb 3e de b0 2b 3e
       -0.5299172 -0.5605844 0.46089888 0.16766688

intercepts2 f4 [1, 8]
000000 f5 78 c0 3e fb c5 ea be 10 41 dd bd ef 7d db 3d
       0.37592283 -0.45854172 -0.10803425 0.10717379
000010 c7 ae fe 3e 04 18 1b bf f2 97 92 3d 7d b5 49 be
       0.4974272 -0.6058352 0.071578875 -0.19698139

coefficient3 f4 [8, 4]
000000 1b 83 f8 3c dd 11 4f bf ce 90 03 3f 07 e7 31 bf
       0.030335953 -0.8088663 0.5139283 -0.69493145
000010 98 23 5d 3f a2 8a 37 3f 03 cd 81 be bd 78 60 bf
       0.86382437 0.7169591 -0.25351724 -0.8768423
000020 b7 09 96 bf 81 70 5e 3e c5 27 1e 3f 17 a4 5e 3e
       -1.1721715 0.21722604 0.61779433 0.21742283
000030 ac e1 26 3f 1a 88 c5 3d 4a 4f 55 3f 31 2d 78 bf
       0.651881 0.096451 0.8332411 -0.96943957
000040 be 76 10 be 81 14 07 bf a5 2b 26 bf a4 e5 c7 3e
       -0.14107797 -0.5276566 -0.64910346 0.3904239
000050 08 0d f8 3e 1a 44 d1 3e e5 c4 e3 be ce 40 8a bf
       0.48447442 0.4087227 -0.44486156 -1.0801027
000060 e7 85 7d 3f ae 37 2f 3e b4 ef 43 3e 0e 8d f6 bd
       0.99032444 0.17111084 0.19134408 -0.12038623
000070 62 40 13 bf 23 90 7d 3f 83 d7 4c bf ab 41 d9 be
       -0.57520115 0.9904806 -0.80016345 -0.42432913

intercepts3 f4 [1, 4]
000000 89 45 8f 3e 1c 8c d3 be 73 76 fb be 1a 20 10 3f
       0.2798274 -0.41317832 -0.49113807 0.56298983
