UserGuidanceAI/models/BurstSize_300/UserGuidanceAIMLP.onnx (onnx, 500088 bytes, 8 tensors)

coefficient f4 [4800, 23]
0	0xbba96561	-0.005169556
1	0x3d20aefd	0.03922938
2	0xbcb4511d	-0.022011334
3	0xbd44b509	-0.04802421
4	0xbd0952cf	-0.033526238
5	0xbd467ce2	-0.04845894
6	0xbc906f79	-0.01763128
7	0x3c740c80	0.014895558
8	0xbca38906	-0.019962799
9	0x3cfc5927	0.03080423
10	0xbcd3b65c	-0.025843792
11	0xbd8e24c8	-0.06940609
12	0xbc83ea25	-0.01610286
13	0x3d1c64bc	0.038182005
14	0xbcb1f940	-0.021725297
15	0x3cf47946	0.029842984
16	0xbd17e0ed	-0.03707974
17	0x3d39fbfb	0.045406323
18	0xbcbc093b	-0.02295362
19	0xbc9150c8	-0.017738715
20	0x3d11463a	0.035467364
21	0x3cea2ca2	0.028585736
22	0xbb54ad26	-0.0032451837
23	0x3c6d93da	0.014500583
24	0x3d4374ef	0.04771894
25	0x3d1eb031	0.038742248
26	0xbd768f63	-0.060195338
27	0xbd18f177	-0.037339654
28	0xbd31114c	-0.043229386
29	0x3d033d2a	0.032040752
30	0xbb0f79a3	-0.002189257
31	0xbca0d784	-0.019634016
32	0x3d70e7e1	0.058814887
33	0xbc92a6be	-0.017901774
34	0xbd909906	-0.07060437
35	0xbc0b0ef3	-0.008487451
36	0x3cdb78ed	0.02679106
37	0x3d08bf9b	0.033385854
38	0xbc9527b1	-0.018207403
39	0xbc3c30d6	-0.011486253
40	0x3d95b1bf	0.07309293
41	0x3c9885f4	0.018618561
42	0xbc3aa242	-0.011391224
43	0x3d0eb6fc	0.034842476
44	0xbcfdbb48	-0.030973092
45	0x3bc6f691	0.0060718735
46	0x3cfab9b4	0.030606128
47	0x3bead614	0.0071666334
48	0xbbb952dd	-0.00565563
49	0xbd6a6ef0	-0.057234704
50	0xbd1d4c98	-0.038403124
51	0xbb6a6d85	-0.0035770845
52	0xbc81fece	-0.01586857
53	0x3c267e4a	0.010161946
54	0xbc85dcb6	-0.016340595
55	0xbc09e144	-0.008415524
56	0xbc610d41	-0.01373607
57	0xbdd1c265	-0.10242156
58	0x3c3b5e32	0.011436032
59	0x3cf2ebe1	0.029653491
60	0xbc9aa259	-0.018876242
61	0x3bd1b18b	0.0063993386
62	0xbc7377f4	-0.014860142
63	0x3cef05f0	0.029177636
64	0xbcf0fb3e	-0.029416677
65	0x3c0d12c7	0.008610434
66	0x3cf6c242	0.030121926
67	0xbaccca46	-0.0015624247
68	0x3d284523	0.04108156
69	0x3c00f03b	0.007869775
70	0x3d53496e	0.0515837
71	0xbc8718e8	-0.016491368
72	0xbd62f5b3	-0.0554101
73	0x3c89add6	0.016806524
74	0xbcb840e3	-0.022491878
75	0xbcb899e0	-0.02253431
76	0x3d6ca5cb	0.0577753
77	0xbcec2594	-0.028826512
78	0x3d2ba2c2	0.041903265
79	0xbb3e3f4c	-0.0029029427
80	0xbd53be38	-0.05169508
81	0x3c673a31	0.014112995
82	0x3d020d6b	0.031751078
83	0xbb43f782	-0.0029902165
84	0xbbb9501c	-0.0056553017
85	0x36ce48fe	6.147776e-06
86	0x3cf07b18	0.02935557
87	0x3d0f6562	0.035008796
88	0x3ca7dbf8	0.020490631
89	0x3cd53bb9	0.026029455
90	0xbd01045f	-0.03149831
91	0x3d2f5e46	0.042814516
92	0xbb32f85b	-0.0027308676
93	0x3cdf2783	0.02724052
94	0x3a328a54	0.00068107736
95	0xbd40281e	-0.04691326
96	0x3ccb3f6a	0.024810512
97	0xbc1c07bf	-0.009523331
98	0xbd053fdc	-0.032531604
99	0x3d026aa7	0.031839993
100	0xbce58aa8	-0.028020218
101	0x3cc5b1e7	0.024132682
102	0x3c2c0e6b	0.010501484
103	0xbdbc0af5	-0.091817774
104	0x3d0ccc4c	0.03437452
105	0x3cc0bd8f	0.023527889
106	0xbce79596	-0.02826957
107	0x3d302c00	0.04301071
108	0xbc5f6599	-0.013635063
109	0x3d90a164	0.07062033
110	0xbcb0dcd0	-0.021589667
111	0xbca77c1d	-0.020444924
112	0x3d470ee6	0.048598193
113	0x3bd4426a	0.0064776437
114	0xbca0ff9d	-0.019653136
115	0x3c979d0a	0.0185075
116	0x3d1e7d9e	0.038694017
117	0x3d151b28	0.03640285
118	0xbc402883	-0.011728409
119	0xbcfb831f	-0.030702172
120	0xbd3f203f	-0.04666161
121	0xbcf8ea3f	-0.030385135
122	0xbc2b4b70	-0.010454997
123	0xbd19178b	-0.037375968
124	0x3d442f7b	0.047896843
125	0xbc4b288b	-0.012399803
126	0xbd9a97d3	-0.075484894
127	0x3cf7ecac	0.030264221
128	0xbc5c704d	-0.013454509
129	0xbc2b372c	-0.010450166
130	0x3c9195cc	0.017771624
131	0x3bc60fa9	0.0060443473
132	0x3d290809	0.04126743
133	0xbd06fdc3	-0.03295685
134	0x3cc55f02	0.024093155
135	0xbaa7e943	-0.0012810606
136	0x3c7bfa4f	0.015379502
137	0x3b9264e2	0.0044675926
138	0x3cd4df8d	0.025985504
139	0x3d2022c0	0.03909564
140	0x3c18f17d	0.009334919
141	0xbd52327f	-0.051317688
142	0xbd1a248f	-0.03763252
143	0xbd1d24c0	-0.038365126
144	0xbcfbdb13	-0.030744111
145	0xbbc599b2	-0.006030285
146	0xbd20b164	-0.039231673
147	0x3d183697	0.037161436
148	0xbc2ca30b	-0.010536919
149	0xbde14cc0	-0.11000967
150	0xbcc0bb19	-0.023526715
151	0x3d304c59	0.04304156
152	0x3c511c66	0.012763118
153	0xbc0c2819	-0.008554482
154	0xbd380fd3	-0.044936966
155	0x3d599e4a	0.05312947
156	0xbca82f41	-0.020530345
157	0x3c27c6ee	0.0102403
158	0x3d45d0d8	0.048294872
159	0x3c97a674	0.018511988
160	0xbbb6fc55	-0.0055842795
161	0xba08ae03	-0.0005213918
162	0x3ce54603	0.027987486
163	0x3cf18d7a	0.029486407
164	0xbd41984b	-0.04726438
165	0xbd2b1564	-0.041768447
166	0xbd26b127	-0.04069629
167	0x3b4edf3c	0.0031566164
168	0x3cf4baa2	0.02987415
169	0xbc79885d	-0.015230265
170	0x3c086860	0.008325666
171	0x3ca4c24e	0.020112183
172	0xbd9a83ea	-0.07544692
173	0xbb1c5512	-0.0023854417
174	0x3c61942c	0.013768237
175	0x3cdfb04d	0.027305746
176	0x3cc84191	0.024445327
177	0xbd26d283	-0.040728103
178	0x3bac6286	0.0052607683
179	0xbc06996f	-0.008215292
180	0x3c3d9786	0.0115717705
181	0xbbd280a3	-0.006424026
182	0x3c3217e5	0.010869955
183	0xbc9c7b3c	-0.019101731
184	0xbc77db3f	-0.015127956
185	0x3d2f485a	0.04279361
186	0xbc8c4602	-0.017123226
187	0xbc7c8d4d	-0.015414548
188	0xbb9db4ad	-0.004812798
189	0x3ca324cb	0.019915005
190	0xbc37391c	-0.0111830495
191	0xbc160c2c	-0.009158175
192	0xbbc6ff4a	-0.0060729133
193	0x3d16a3dc	0.036777362
194	0x3c833b4c	0.016019486
195	0xbd4d4d3e	-0.050122492
196	0xbcdc80c5	-0.02691687
197	0xbc18d062	-0.009327026
198	0x3cbdf6af	0.023188917
199	0x3d24624a	0.0401328
200	0x3bf899d3	0.0075866967
201	0x3d1262c6	0.03573873
202	0x3cfa841d	0.030580575
203	0x3c4ff874	0.012693513
204	0x3c3b7a54	0.0114427395
205	0xbc1acd3e	-0.009448348
206	0x3c5bf72a	0.013425628
207	0x3bd0d6b7	0.0063732523
208	0x3d543ee6	0.051817797
209	0x3cf93076	0.030418616
210	0xbd02beb0	-0.031920135
211	0x3cc3bc5d	0.02389353
212	0xbd0625bd	-0.032750834
213	0xbc9feb80	-0.019521475
214	0xbb664fb2	-0.0035142717
215	0xbcaa8c6c	-0.020818911
216	0xbc96ea7e	-0.018422361
217	0x3c9bacea	0.01900335
218	0xbd6883a7	-0.05676618
219	0xbcda0eef	-0.026618449
220	0xbc55f893	-0.013059753
221	0x3bb5d497	0.0055490243
222	0xbc8eb03d	-0.017418021
223	0xbac8876e	-0.001529915
224	0x3cad6585	0.021166572
225	0x3d03d2ed	0.032183576
226	0x3c253bae	0.0100850295
227	0x3d38588a	0.045006312
228	0x3c945da4	0.018111058
229	0x3d120855	0.035652477
230	0x39daacd3	0.00041708964
231	0x3cd523fe	0.026018139
232	0x3c8daa65	0.017293165
233	0xbd1aa6d9	-0.037756775
234	0xbc060868	-0.008180715
235	0xbaa60ce7	-0.001266864
236	0xbcdfe1b1	-0.027329298
237	0x3cee6c8b	0.029104492
238	0xbccc8861	-0.024967374
239	0x3d08088c	0.033211276
240	0xbcb8ccdd	-0.022558624
241	0xbd4c8cb5	-0.049938876
242	0x3c5ff589	0.01366938
243	0xbc55ed10	-0.013057008
244	0x3d1c2616	0.03812226
245	0x3c9568b1	0.018238397
246	0xbd5bd740	-0.053672075
247	0x3cc6a80c	0.024250053
248	0x3c5f2ecf	0.013622
249	0x3d0dbbaf	0.034602817
250	0xbc585eec	-0.013206225
251	0x3cea7764	0.028621383
252	0xbac6e1b7	-0.001517347
253	0x3d11eafe	0.035624497
254	0x3d036536	0.032078944
255	0x3ca55d4a	0.020186085

intercepts f4 [1, 23]
0	0xbc504d99	-0.012713813
1	0x3ceff792	0.029292855
2	0xbb8ccdc5	-0.0042969906
3	0x3d582103	0.052765857
4	0xbd166f2d	-0.03672712
5	0xbc1450c5	-0.00905246
6	0xbc4dad7e	-0.012553571
7	0xbc01c9b0	-0.007921621
8	0x3d3ff207	0.046861675
9	0xbd314bc6	-0.043285154
10	0x3c173478	0.009228818
11	0x3d3c9d48	0.046048433
12	0x3d7e0c8c	0.062023684
13	0x3d1f0ab7	0.038828578
14	0x3cfa5c96	0.030561727
15	0xbcb2024c	-0.02172961
16	0xbd15e863	-0.036598574
17	0x3c15947a	0.009129638
18	0x3c4d58e9	0.012533405
19	0x3da213a9	0.07913906
20	0xbcedd075	-0.029030064
21	0x3ceafc57	0.028684778
22	0x3c8b2302	0.016984466

coefficient1 f4 [23, 14]
0	0x3e5e32f8	0.2169913
1	0x3e12d128	0.143376
2	0x3e750c7a	0.2393054
3	0x3e8650da	0.2623356
4	0x3ece5bdd	0.4030446
5	0x3ec60df9	0.38682535
6	0xbdae052c	-0.0849708
7	0x3dc91050	0.098175645
8	0xbe327e2b	-0.17430942
9	0x3e8ab4b7	0.27091
10	0x3da2e1be	0.07953213
11	0x3ec4e6fc	0.38457477
12	0xbe8f189a	-0.27948457
13	0x3d01b9cc	0.03167133
14	0x3e826029	0.2546399
15	0x3ea36f0d	0.31920663
16	0x3e1985cb	0.14992444
17	0xbd9ccd54	-0.07656351
18	0x3ebb0ad1	0.3653169
19	0x3e84a576	0.25907487
20	0xbeba186b	-0.36346754
21	0xbe96906d	-0.29407063
22	0xbe494b63	-0.19657664
23	0xbe39b0fc	-0.1813392
24	0xbd6b76cc	-0.05748634
25	0x3de898af	0.11357247
26	0xbe2ac5af	-0.16676973
27	0x3e836f24	0.2567073
28	0xbe424aad	-0.18973799
29	0x3ecf5ffb	0.40502915
30	0xbe06db53	-0.13169603
31	0x3ea2d7bb	0.31805214
32	0xbe0092a5	-0.1255594
33	0xbecdabae	-0.40170044
34	0xbdddcbd2	-0.10829891
35	0x3e1a83e4	0.15089375
36	0x3c9b06b2	0.018924091
37	0x3c840824	0.016117163
38	0xbebba9ce	-0.36652988
39	0x3eb6b518	0.3568504
40	0xbdae2715	-0.08503548
41	0x3d77082b	0.060310524
42	0xbe9747c1	-0.2954693
43	0xbee44513	-0.4458395
44	0x3e76c124	0.24097115
45	0xbdbb4d7e	-0.0914564
46	0x3e09e66d	0.13466807
47	0x3e302c3f	0.17204379
48	0x3e7949e2	0.2434459
49	0x3cbdc596	0.023165505
50	0xbed3cc76	-0.4136693
51	0x3c0d6820	0.008630782
52	0xbe16c867	-0.14724885
53	0x3e2bbdab	0.16771571
54	0xbe40f3e7	-0.18843041
55	0xbeac0a42	-0.33601576
56	0x3ec11553	0.37711582
57	0x3e8ce47a	0.27518064
58	0xbec126c0	-0.37724876
59	0xbe0213b0	-0.12702823
60	0xbe5e5633	-0.2171257
61	0xbe2b4636	-0.16726002
62	0xbd2ec1a7	-0.04266515
63	0xbd87f098	-0.066376865
64	0x3dadf650	0.08494246
65	0x3c1069d0	0.00881429
66	0xbdd025d6	-0.10163467
67	0x3e0758c5	0.13217457
68	0x3ed731ca	0.42030174
69	0xbeb963a3	-0.3620883
70	0x3d978ef2	0.074003115
71	0xbeae30f2	-0.34021717
72	0x3e213b1b	0.15745203
73	0xbe1d895d	-0.15384431
74	0xbed5590e	-0.41669506
75	0xbea71300	-0.32631683
76	0x3dd4d05c	0.10391304
77	0xbec74ec6	-0.38927287
78	0xbd80902e	-0.062775
79	0x3eaafeef	0.33397624
80	0x3db6061e	0.088878855
81	0xbebb6937	-0.3660371
82	0xbec32cec	-0.3812021
83	0x3eeb9ba0	0.4601717
84	0x3eb5bf0b	0.35497317
85	0x3e37d01e	0.17950484
86	0xbe806a75	-0.2508122
87	0xbe08b0f0	-0.13348746
88	0x3e4ecae5	0.20194586
89	0xbeb9e3d7	-0.3630664
90	0xbe397e6d	-0.18114634
91	0x3d81ad01	0.06331826
92	0x3eba9467	0.36441347
93	0x3e4d4c40	0.20048618
94	0x3ef48f27	0.47765467
95	0xbe9a4a94	-0.30135024
96	0xbe16190d	-0.14657994
97	0xbe977473	-0.2958103
98	0x3e862d67	0.26206514
99	0xbeaecb09	-0.3413928
100	0x3e07395c	0.13205475
101	0x3e74595f	0.23862217
102	0xbe2e7c64	-0.17039639
103	0x3e68f2a9	0.22748818
104	0xbec27497	-0.37979576
105	0xbec5e543	-0.38651475
106	0xbecf0f64	-0.4044143
107	0x3ddc5622	0.10758616
108	0xbead49c1	-0.33845332
109	0x3d9492c5	0.072545566
110	0xbec02ee0	-0.37535763
111	0x3e378e7e	0.1792545
112	0x3e7b2b2e	0.2452819
113	0xbcd8b69b	-0.02645426
114	0xbe909898	-0.2824142
115	0x3e16aa1c	0.14713329
116	0x3e55d18c	0.20880717
117	0x3ea608b4	0.32428515
118	0x3cd4d616	0.02598099
119	0x3ec98e14	0.3936621
120	0x3da93d66	0.08263664
121	0x3ddb0749	0.10694749
122	0x3e79c52a	0.24391618
123	0xbc59deb2	-0.013297724
124	0x3ee69d04	0.45041668
125	0x3dd20b8b	0.10256108
126	0xbebfdbd4	-0.37472403
127	0x3ea669a8	0.32502484
128	0xbe984492	-0.29739815
129	0xbe88e142	-0.26734358
130	0xbe23c676	-0.15993676
131	0xbec4e825	-0.38458362
132	0xbdc49267	-0.095982365
133	0xbe5f9af6	-0.21836457
134	0xbe0131b3	-0.12616615
135	0xbcd66f6e	-0.02617618
136	0x3d392b1a	0.04520712
137	0x3e357b54	0.17722827
138	0xbd5375db	-0.051626068
139	0x3ee55e6a	0.44798595
140	0xbe6825a2	-0.22670606
141	0xbc9f79f7	-0.019467337
142	0x3d2a7d11	0.04162318
143	0xbe900a01	-0.28132632
144	0x3edd1158	0.43177295
145	0x3e50100c	0.20318621
146	0x3edc8777	0.430721
147	0xbe5ffc62	-0.2187362
148	0x3d4bfa71	0.049799386
149	0x3d69a7ed	0.057044912
150	0x3d6e77ac	0.058219597
151	0x3eaa94fa	0.33316785
152	0x3e02fa8e	0.12790892
153	0xbe2ae4b3	-0.16688804
154	0x3e83b29a	0.257222
155	0x3e83f900	0.2577591
156	0x3e52aad7	0.20572983
157	0xbe7a109f	-0.24420403
158	0xbd5a8b4f	-0.05335551
159	0x3e1be6b5	0.15224726
160	0x3ef82fe7	0.48474047
161	0x3e7953c3	0.24348359
162	0xbe5dd489	-0.21663107
163	0xbe4602e2	-0.19337037
164	0x3e0ba1ea	0.13635984
165	0x3e89dfa7	0.26928446
166	0xbd08789f	-0.03331816
167	0xbe20e8f2	-0.15713862
168	0xbeaa5aab	-0.332723
169	0xbbe36b9d	-0.0069403187
170	0x3ee9b276	0.45643967
171	0xbe8f4adf	-0.2798681
172	0xbea9a231	-0.33131555
173	0x3e60dbff	0.21958922
174	0x3e6b7973	0.22995548
175	0xbeb17e5d	-0.3466672
176	0xbdf6f643	-0.120586894
177	0x3ec8b077	0.39197132
178	0x3dcb70a3	0.09933593
179	0xbe768cf4	-0.24077207
180	0x3dd8f428	0.10593444
181	0xbd48aa08	-0.04899028
182	0x3e6e1bba	0.23252764
183	0xbe834642	-0.2563954
184	0xbeaca2e3	-0.33718023
185	0x3db55126	0.088533685
186	0xbe214b12	-0.15751293
187	0xbe55af12	-0.20867565
188	0xbe601355	-0.21882375
189	0xbea153c4	-0.3150922
190	0x3edb9364	0.42885888
191	0x3eddf19e	0.43348402
192	0x3e2a4740	0.16628742
193	0x3d9b17da	0.07572909
194	0x3e187e3f	0.14891909
195	0x3d5f5422	0.054523595
196	0xbea41916	-0.3205039
197	0xbdb2a8f3	-0.08723631
198	0x3dde74a8	0.10862094
199	0x3e8818e3	0.26581487
200	0xbe8f35d7	-0.27970764
201	0x3e1ac6ef	0.1511495
202	0x3e59746b	0.21235816
203	0x3e72a1ee	0.23694584
204	0xbe6c4ede	-0.2307696
205	0xbe659dbd	-0.22423454
206	0x3e4284cc	0.1899597
207	0x3d4c081e	0.04981243
208	0xbeabeec9	-0.33580616
209	0xbcfb1de7	-0.030653907
210	0x3e5f923a	0.21833125
211	0xbe657c3e	-0.22410676
212	0xbe23acb2	-0.15983847
213	0xbde4c510	-0.11170399
214	0xbe404b54	-0.18778735
215	0x3e736e67	0.23772584
216	0xbe97806f	-0.29590175
217	0xbdce3492	-0.10068621
218	0x3e19b619	0.15010871
219	0x3d6f86ec	0.05847828
220	0x3e887d88	0.26658273
221	0x3e865882	0.262394
222	0x3e433a7e	0.19065282
223	0x3e93be36	0.28856057
224	0x3eb72d52	0.35776764
225	0x3dcee353	0.101019524
226	0xbcd8650e	-0.026415374
227	0x3aa7f84e	0.001281509
228	0xbea671a2	-0.3250857
229	0xbdd0b4a9	-0.10190708
230	0x3e872ffe	0.26403803
231	0x3e9f1178	0.31068015
232	0x3e7322ab	0.23743694
233	0xbeda464e	-0.42631763
234	0x3e3134ff	0.17305373
235	0xbed97328	-0.4247067
236	0xbdc29be7	-0.09502392
237	0xbddd77cf	-0.10813867
238	0xbeb0ae0a	-0.3450778
239	0x3cdc9dc1	0.026930692
240	0x3da1af68	0.07894784
241	0x3e2600b4	0.16211206
242	0xbeca1613	-0.39469966
243	0xbca30d02	-0.019903664
244	0x3ea37872	0.3192783
245	0xbebe47fc	-0.37164295
246	0x3eabda6e	0.33565086
247	0xbea8aa65	-0.329425
248	0xbdf6e2eb	-0.12055
249	0x3e32c783	0.1745892
250	0x3eeca796	0.46221608
251	0x3e8091b9	0.25111178
252	0x3d6ea980	0.058267117
253	0xbea44489	-0.32083538
254	0x3d9f32d6	0.07773368
255	0xbe70801d	-0.23486371

intercepts1 f4 [1, 14]
0	0x3eabdce1	0.33566955
1	0x3e361d40	0.17784595
2	0x3e5cfe58	0.215814
3	0x3e823725	0.25432697
4	0xbe462e45	-0.19353588
5	0x3e0b7617	0.13619266
6	0x3e9d77bd	0.30755416
7	0x3d2918fd	0.041283596
8	0xbe4fc584	-0.2029019
9	0x3eac26f8	0.3362348
10	0x3d9508e0	0.072770834
11	0xbdff6409	-0.12470252
12	0xbdf3b9d4	-0.11900678
13	0xbe84b283	-0.25917444

coefficient2 f4 [14, 8]
0	0xbede036e	-0.43361992
1	0x3e45eb67	0.1932808
2	0xbdd3f082	-0.103486076
3	0x3d79d682	0.060995586
4	0x3f197505	0.5994418
5	0xbdc01a83	-0.09380057
6	0x3e2e2ecd	0.1701004
7	0xbeffa764	-0.49932396
8	0xbd88fdfc	-0.06689069
9	0xbd164aab	-0.036692303
10	0xbf098adc	-0.5372751
11	0xbdfa2dd9	-0.12215776
12	0x3f0c7e3a	0.54880106
13	0x3e315078	0.17315853
14	0x3f06cddf	0.52657884
15	0x3ef4dcee	0.47824806
16	0xbeaa1202	-0.33216864
17	0x3eb2cd7c	0.34922397
18	0x3f1838cf	0.59461683
19	0x3bd4525b	0.006479544
20	0x3d50053f	0.050786253
21	0xbebe2464	-0.3713714
22	0xbd10069e	-0.03516256
23	0x3ec89bb4	0.39181292
24	0x3f19f9ac	0.60146594
25	0x3e25346c	0.16133279
26	0xbed88ffc	-0.4229735
27	0xbe84bfae	-0.2592749
28	0xbef0dbb4	-0.4704262
29	0x3f220934	0.6329529
30	0x3ced34df	0.028955875
31	0xbf06320d	-0.5242012
32	0xbe7fceae	-0.24981186
33	0xbeb57b1e	-0.35445493
34	0xbcfe4acf	-0.03104153
35	0x3f07f885	0.53113586
36	0x3e26497d	0.16238971
37	0xbe5b36d3	-0.21407633
38	0x3f0449eb	0.5167529
39	0x3ecddc01	0.40206912
40	0x3ef20c4e	0.47275013
41	0xbedb04e5	-0.42777172
42	0x3ef08f8b	0.46984515
43	0x3ef981c4	0.48731816
44	0xbd479dbd	-0.048734415
45	0xbdfc9bca	-0.12334402
46	0x3e4a5dfd	0.19762416
47	0xbebdb5d1	-0.37052777
48	0x3f0fdb6d	0.5619419
49	0xbebfa484	-0.37430203
50	0x3ead8068	0.3388703
51	0xbea7a1b1	-0.32740548
52	0x3ec000b6	0.37500542
53	0xbce5b64b	-0.028041026
54	0x3c2f1d4f	0.01068814
55	0xbebda8f3	-0.3704296
56	0x3c432ec0	0.011913002
57	0x3e81a748	0.25322938
58	0xbe7f7687	-0.24947558
59	0xbe6948f6	-0.22781739
60	0xbe00c140	-0.12573719
61	0x3e0d63c9	0.13807596
62	0x3e8a5e11	0.27024892
63	0xbdc71098	-0.09719962
64	0xbe534893	-0.20633154
65	0x3dc2d0a4	0.09512451
66	0x3e950ed8	0.29112887
67	0x3db2db64	0.08733252
68	0xbf24d212	-0.6438304
69	0x3ed75305	0.42055526
70	0x3e74c697	0.23903881
71	0xbe64325a	-0.22284833
72	0xbed66ee3	-0.41881475
73	0xbee351c7	-0.4439833
74	0x3e28d778	0.16488445
75	0x3ebf190c	0.37323797
76	0xbd5fe770	-0.054664075
77	0xbe2ec919	-0.170689
78	0xbee20fc2	-0.44152647
79	0xbe135b38	-0.14390266
80	0x3ef99f79	0.4875448
81	0x3e99a1e5	0.30006328
82	0x3ebb9576	0.36637467
83	0xbea814c3	-0.3282834
84	0x3e835054	0.25647223
85	0x3e15a74f	0.14614604
86	0x3e98a72a	0.29815036
87	0xbeb9a780	-0.36260605
88	0xbd881237	-0.06644099
89	0xbe819810	-0.25311327
90	0xbcbd3141	-0.023094775
91	0x3e2a91b4	0.16657144
92	0xbe8cd282	-0.27504355
93	0xbd93831f	-0.07202744
94	0xbec2a6c8	-0.3801787
95	0x3e3d1726	0.18465862
96	0xbe879cc5	-0.26486793
97	0xbd5d6e35	-0.05406018
98	0x3eb901e5	0.36134258
99	0xbf162aed	-0.5865925
100	0xbed960f7	-0.4245679
101	0x3db5194b	0.08842715
102	0xbdee3902	-0.11631967
103	0x3e9d246a	0.30691844
104	0x3d4bc60c	0.04974942
105	0xbcef9b4e	-0.02924886
106	0xbe825920	-0.25458622
107	0x3f141341	0.5784188
108	0x3e0d5bd7	0.13804565
109	0xbdc33c73	-0.09533014
110	0xbe285d8d	-0.16441937
111	0x3f0a00b1	0.53907305

intercepts2 f4 [1, 8]
0	0x3ef73aca	0.4828704
1	0xbeb0c9aa	-0.34528857
2	0x3ecde942	0.40217024
3	0xbe980c5d	-0.29696932
4	0x3cb3f244	0.021966107
5	0x3ed389c8	0.41316056
6	0x3da9d345	0.082922496
7	0x3e7cad6d	0.24675532

coefficient3 f4 [8, 4]
0	0xbe6ea6f9	-0.23305883
1	0x3f458354	0.77153516
2	0x3e0bf862	0.1366897
3	0xbf3fd013	-0.7492687
4	0x3ef1dbd8	0.4723804
5	0x3f604814	0.8760998
6	0xbe979787	-0.29607794
7	0xbea5f064	-0.32409966
8	0xbf311c3b	-0.691837
9	0xbe1c0894	-0.15237647
10	0x3efe4761	0.49663833
11	0x3e9354dc	0.2877568
12	0xbe405c96	-0.18785319
13	0xbf25a91b	-0.6471116
14	0xbf199788	-0.59996843
15	0x3e66780b	0.2250673
16	0x3f2d5721	0.67711073
17	0xbec038a1	-0.37543204
18	0x3f032c1a	0.5123917
19	0xbd979884	-0.07402137
20	0x3ec8d173	0.39222297
21	0x3e09c525	0.13454111
22	0x3e947ab1	0.28999856
23	0xbf10b8a4	-0.5653174
24	0x3f0abfa4	0.5419867
25	0x3eb2f155	0.34949747
26	0xbea35a64	-0.319049
27	0x3d8b4dbb	0.06801935
28	0xbf394eba	-0.7238575
29	0x3f13f659	0.5779777
30	0xbf39cfe8	-0.72582865
31	0x3d80a65e	0.06281732

intercepts3 f4 [1, 4]
0	0x3f358ce3	0.709181
1	0x3e8e144f	0.2774987
2	0x3e97ad93	0.29624614
3	0xbf2d0a74	-0.67594075
