UserGuidanceAI/models/BurstSize_80/UserGuidanceAIMLP.onnx (onnx, 376207 bytes, 4 tensors)

coefficient f4 [1280, 70]
000000 39 58 a5 bd a3 7b a3 3d d5 01 0b bd 13 a2 9a 3c
       -0.08073468 0.07982566 -0.033937294 0.018876111
000010 70 d5 31 bc ae 34 80 b9 73 50 87 3c 9e a8 c6 3c
       -0.01085411 -0.00024453312 0.016517853 0.024250325
000020 5e bd 96 bc 67 7f 96 3c 01 bc 4b 3c 66 18 3e ba
       -0.018400844 0.018371297 0.01243496 -0.00072515605
000030 5e c6 65 bc ce e3 fe bc 39 85 08 3d 87 38 b5 bc
       -0.014024345 -0.031114485 0.033330176 -0.02212168
000040 3d 85 ea bb d0 a5 9b 3c 23 9d 82 bd df ed e4 3d
       -0.0071569965 0.018999964 -0.06377628 0.11178183
000050 4e 60 dc 3c a2 c0 b5 3b 3b eb 89 bc 17 12 5b 3c
       0.02690139 0.0055466453 -0.0168358 0.013371012
000060 5b 15 9e bc ba 2e fb 3b 52 d3 07 bc 06 41 3e bd
       -0.019297292 0.0076654823 -0.008290129 -0.04644873
000070 ec d4 7b bd 07 b8 40 3d 2a bd 8e bd 88 f2 51 bc
       -0.061482355 0.047050502 -0.06969674 -0.012814172
000080 d8 75 94 3d c7 17 5c 3d 1b ed bd bb a3 ca 5b bd
       0.072490394 0.053733613 -0.0057960874 -0.053660046
000090 0f dc 2b 3c e4 57 ae 3c 80 6d 57 bb d3 dd 39 bd
       0.010489478 0.021282144 -0.0032871664 -0.045377564
0000a0 29 a3 d6 bb 49 a5 24 bc a9 b0 bc b9 17 0e fd bc
       -0.006550212 -0.010049173 -0.00035989776 -0.030890508
0000b0 15 e6 a2 3d 4c 08 2b bc fd 7d d1 3c d6 bf 21 3d
       0.07954041 -0.01043899 0.025572771 0.03948959
0000c0 b8 c6 b7 3d ef 28 ac bb 80 54 c4 3c 27 14 aa 3c
       0.089734495 -0.005253903 0.023966074 0.020761563
0000d0 59 5e 23 bd b8 8e 86 3c c9 c4 c3 3d 8b a6 65 bd
       -0.0398849 0.016425475 0.09559018 -0.05606703
0000e0 af 22 29 bc d9 fa 9a bb 51 1f 08 be ef 82 31 bd
       -0.010323211 -0.0047296104 -0.13293196 -0.04333776
0000f0 0f f1 6f bd a2 90 be 3c 98 3a b6 3d 4b 16 11 3d
       -0.0585795 0.023262326 0.088978946 0.03542165
000100 c0 d1 b4 bd b0 69 c5 bd dd ef 29 3d 00 b7 85 3c
       -0.08829069 -0.09639299 0.041488517 0.016322613
000110 b4 d1 80 3d 28 d2 8f bb b9 3c 03 bd 88 bb 47 3d
       0.06289998 -0.0043890662 -0.03204033 0.048762828
000120 7a 6b cf bc 51 16 0c 3d 6d f1 4c bc d7 dd f6 bb
       -0.025319804 0.03420097 -0.012508732 -0.0075337696
000130 9f 1f 11 3d ab d8 9a 3c 85 1a 5a 3b d1 be 97 3c
       0.035430547 0.018902143 0.0033279967 0.018523606
000140 72 ca cb 3c d7 7a b5 ba 18 c8 97 3c 6b 85 2e bd
       0.024876807 -0.0013845813 0.01852803 -0.042607706
000150 83 f5 19 3d 7d c0 16 3b 71 29 db bb 8f 5d aa 3c
       0.037587654 0.0023002916 -0.00668829 0.020796565
000160 0b ef 28 bd 8f 29 eb 3d d9 01 15 3c 0f 3f 8c 3c
       -0.041243594 0.11482536 0.009094679 0.017119912
000170 e5 52 49 bc de e2 c5 3b 42 2e 0a bd 71 86 cc bc
       -0.01228783 0.0060390076 -0.03373552 -0.02496645
000180 d1 d3 89 3c 1b 60 d6 bc 79 36 6b bd 42 e4 3a 3d
       0.016824635 -0.026168874 -0.057424996 0.04562784
000190 7a 39 5a bd 60 13 52 bc 84 8d 6b 3d fa 9b 2d 3d
       -0.05327747 -0.012822002 0.057508007 0.04238508
0001a0 74 13 36 3c 78 63 e0 bc d0 9c 25 3b 88 82 24 3d
       0.011113036 -0.02739118 0.002527047 0.040163547
0001b0 b1 d9 1a 3c 32 86 08 bd 7d 0f 1f bd d8 58 43 bc
       0.009451316 -0.033331104 -0.03883313 -0.0119230375
0001c0 67 3b 17 3d 05 2e e5 bc 36 5b 8d 3d 2c 56 d4 bb
       0.036921885 -0.027976045 0.06902163 -0.006479999
0001d0 81 bf be 3c f7 f8 80 3d 6d 20 c9 3d d3 78 6b bc
       0.023284676 0.06297486 0.09820638 -0.014372068
0001e0 8b 73 a4 3c c9 db 59 bc 07 75 63 bd 5a 2f cd 3c
       0.020074626 -0.01329703 -0.055531528 0.025046993
0001f0 c8 30 cb 3d c7 94 76 bc 25 72 a5 bb 88 d0 fd bb
       0.09921414 -0.01505012 -0.0050490075 -0.007745806
000200 f7 a8 1d be 3a 6b 48 bd 36 8a 3c bd de 8c 40 3d
       -0.15396486 -0.048930384 -0.046030246 0.04700934
000210 3b 4e 93 3d 98 32 6a 3c 40 25 71 bd 8d 82 c3 bd
       0.07192656 0.014294289 -0.058873415 -0.09546385
000220 75 1f 4a 3d 98 6f 6d 3c 08 c3 67 3d d9 ca c7 bb
       0.049346406 0.014491938 0.05658248 -0.0060971794
000230 47 8d 2c bd 16 33 1e 3d 34 aa db bc 09 5a 84 3c
       -0.04212692 0.038622938 -0.026814558 0.016156213
000240 33 7e 26 bd 12 d5 f2 bb 7b 11 a7 3b bf 79 a5 3c
       -0.040647697 -0.007410654 0.0050985194 0.020199655
000250 5c 11 8f bc 97 d2 8a bc 60 eb 31 bc b7 17 b4 3b
       -0.017464332 -0.01694612 -0.01085934 0.005495991
000260 cf 89 30 39 be 89 09 bd 98 0a 16 3d 7f c8 0e 3b
       0.00016836006 -0.033578627 0.036631197 0.0021786985
000270 f5 aa 86 bc 09 60 51 3c de 36 f7 bc 6d 8f f7 3d
       -0.01643894 0.012779244 -0.03017753 0.12087903
000280 c7 f7 ee 3b 87 9c a5 3b 2a 4a a4 3b b2 10 93 3c
       0.007292721 0.00505406 0.005013724 0.017952297
000290 b6 54 29 bd 59 40 f3 bc 3e 0c bb bc ef e0 04 bd
       -0.041340552 -0.02969377 -0.022832986 -0.032441076
0002a0 a7 94 b2 bc d5 15 23 3d 19 4c 42 bd d1 af 2b 3c
       -0.021799399 0.039815743 -0.047435854 0.01047893
0002b0 4e b9 3a 3d 4e 29 2d 3d e2 f8 c4 ba 21 a2 23 bc
       0.045586877 0.04227572 -0.0015027786 -0.009987385
0002c0 a8 25 8b 3c 80 1a 93 3c 09 04 47 bb 64 90 52 bd
       0.01698573 0.017956972 -0.0030367395 -0.051407233
0002d0 34 ab a0 bc e4 cb 0a bc f5 68 06 3d 83 3f 1f bd
       -0.019612886 -0.008471463 0.03281494 -0.03887893
0002e0 bb cc 93 3d 59 5f 6c bc 7e 7b 9c 3c 09 a1 16 3d
       0.072167836 -0.0144270295 0.019101854 0.03677467
0002f0 21 52 bd 3d eb 4d a8 3c 9a 39 c8 3c 6b 58 18 bc
       0.092441805 0.020544967 0.024441529 -0.009298424
000300 5a 12 c4 bc 7b 3d 86 3d c2 af b5 3d a7 5d 83 3c
       -0.023934532 0.06554695 0.08871414 0.016035868
000310 4e d2 3e bc eb 5b 12 bc 9d 54 09 be 8c 89 f0 bc
       -0.01164682 -0.008933048 -0.13411184 -0.029362462
000320 df 1b 11 bd 37 aa 0a 3d 4b 99 ba 3d 2e f4 95 3c
       -0.03542697 0.033853736 0.091112696 0.01830491
000330 8a 70 bb bd 94 80 8f bd 69 b2 16 3d ec ff 91 3c
       -0.091523245 -0.07006946 0.03679124 0.017822228
000340 df 7a 4e 3d 5a 9a 77 bc 0c b2 27 bd e3 48 8e 3d
       0.050410148 -0.015112484 -0.040941283 0.06947496
000350 dc 31 f3 bc c2 20 51 3c 31 d6 13 bd f1 2d 42 3b
       -0.02968686 0.012764158 -0.03609294 0.0029629434
000360 77 cb e2 ba 85 b6 91 3c ed 1d b6 3b 1d 23 bb bc
       -0.0017303069 0.017787227 0.0055577666 -0.022843892
000370 87 97 af bb 12 cc f5 bb 8a 16 d4 bc 67 00 0b bc
       -0.0053586396 -0.0075011337 -0.025889654 -0.008483983
000380 2f 30 82 3d ec 13 90 3c de 5b b9 b9 55 e5 bb 3b
       0.063568465 0.017587624 -0.00035354396 0.0057341256
000390 19 8e 9b bc 7f 66 f6 3d a6 4c 39 3c 4e cd 13 3c
       -0.018988656 0.12031268 0.011309778 0.009021116
0003a0 7e b8 eb 3b 50 4c 5b 3b ca 62 10 bd e2 68 84 bb
       0.007193624 0.0033462234 -0.035250463 -0.0040408233
0003b0 bb 91 c1 bc be 9d 87 bc 26 da f1 bc 4c 69 44 3d
       -0.02362906 -0.01655471 -0.029522967 0.04795198
0003c0 87 f2 42 bd f4 ff 78 3c 60 ab 2b 3d 35 2f 11 3d
       -0.047594573 0.015197743 0.041911483 0.03544541
0003d0 6a 1f d1 3b 3e f0 bc bc 16 7a 0a bc a4 33 13 3d
       0.0063819187 -0.023063775 -0.008451959 0.03593792
0003e0 aa 7e c9 3b 26 bd f3 bc 4b dc 44 bd 6d 96 09 3b
       0.0061491327 -0.029753279 -0.04806165 0.0020994202
0003f0 65 37 57 3c 69 52 ee bc 62 ce a1 3d 03 0e ca bb
       0.013135766 -0.02909203 0.079006925 -0.006166221

intercepts f4 [1, 70]
000000 19 d2 40 bd 2a 7a 8b bd 18 d8 bb 3d 5e 81 8a 3b
       -0.047075365 -0.0681041 0.09172076 0.0042268476
000010 29 f7 04 bb 13 2e 74 be 11 17 eb bb b2 2f 7f 3d
       -0.002028892 -0.23845701 -0.0071743806 0.062301345
000020 ab b5 2a be 3f 21 40 bc 40 f5 ab 3d a2 4f 52 bc
       -0.16670863 -0.0117266765 0.08396387 -0.012836369
000030 a4 a5 81 bd 59 1e 28 3d 8f 97 19 3c de 87 e5 bd
       -0.063304216 0.041044567 0.009374513 -0.11207555
000040 6c cf 9a be d8 85 59 be f3 94 04 be 66 48 18 bd
       -0.30236375 -0.21242464 -0.12947445 -0.03717842
000050 13 27 33 3a c9 46 ed bd f4 f2 1d be 8a 18 33 bd
       0.00068341306 -0.11585767 -0.1542471 -0.043724574
000060 43 7c a2 3c 90 68 e8 3d 8b a4 67 bc 91 33 1f bd
       0.019834643 0.11348069 -0.014138351 -0.038867537
000070 c4 fb 2b 3e e1 04 00 bc 19 3d 81 3d 9e c9 2e be
       0.1679526 -0.007813663 0.063104816 -0.17069098
000080 cf 74 b0 bd 35 1c 9c bd 03 29 71 be 4e ca 8d 3e
       -0.086160295 -0.076225676 -0.23550801 0.2769341
000090 b7 32 20 3d 10 00 00 3c bd c6 c6 bd fd 62 a2 3d
       0.039110865 0.007812515 -0.09705875 0.07929037
0000a0 73 a0 ae ba f8 25 8b bc 3a b3 89 be 3a 17 11 bd
       -0.0013322964 -0.016985878 -0.26894552 -0.03542254
0000b0 ae 4f 76 bd 29 8b 13 be 44 d3 d4 3d 3e cf 59 bd
       -0.060134582 -0.14408554 0.10391858 -0.053176157
0000c0 c0 55 1d 3d 2b b4 10 3b 55 45 3f 3d e6 b3 21 bb
       0.038411856 0.0022080045 0.04669698 -0.0024673878
0000d0 6c ac 61 bd a9 10 d2 bc 53 69 45 be 54 77 aa bd
       -0.055096075 -0.02564271 -0.19278459 -0.08323541
0000e0 b6 3b 26 be d6 d6 b8 bd 80 ba 9d be 72 e1 6d bd
       -0.16233715 -0.09025352 -0.3080635 -0.05807633
0000f0 99 cd fe 3c c0 fa b0 bd 56 b1 aa 3d 3a 41 f5 3d
       0.031103896 -0.08641577 0.083346054 0.119753316
000100 2e 31 33 be 53 d0 a6 bd eb 1f d7 b9 ed e0 38 3d
       -0.1749923 -0.081452034 -0.00041031776 0.04513638
000110 95 8d 3b 3e 36 c9 90 bd
       0.18315728 -0.07069628

coefficient1 f4 [70, 4]
000000 25 1d 3d be 9d 88 5d be 3e 51 d3 3e b1 66 ce be
       -0.18468149 -0.21634145 0.4127292 -0.40312722
000010 4a 69 21 3e 92 28 bd bd 53 df 69 be 1e 99 71 3e
       0.15762821 -0.09236254 -0.22839098 0.23593566
000020 4f ed b5 be 82 34 97 be d0 d8 8b 3c 6f ca 5e 3e
       -0.35532615 -0.29532248 0.017071158 0.2175691
000030 eb 55 25 be b9 88 24 be 97 61 cc bd f0 6d a2 3e
       -0.16146056 -0.1606778 -0.09979551 0.317245
000040 ed 1f d3 be 1c a7 08 3e 9a 18 48 be 11 0b 03 3e
       -0.41235295 0.13344997 -0.19540635 0.1279719
000050 1d 18 44 3e ea d3 0a be 1d 7c 80 be ba f4 53 be
       0.19149823 -0.13557401 -0.2509469 -0.20698825
000060 e2 8c 48 3e cf ed a6 3e 88 ff 11 3e 16 da 01 bf
       0.19584993 0.3260331 0.14257634 -0.507234
000070 62 bd 2b 3e 1c 6f a3 3d 22 dd fe bd 60 5c 52 be
       0.16771463 0.07980177 -0.124445215 -0.20543051
000080 59 e2 b6 be dc 32 d4 3e 45 99 b4 3d da f1 4f be
       -0.35719565 0.41445053 0.08818296 -0.20307103
000090 6b b6 60 be 41 67 14 3d ef 9c 84 3d 84 d7 ab 3e
       -0.21944587 0.036231283 0.06475245 0.33562863
0000a0 e6 21 74 3e d9 c7 5d 3e 35 0f 5e be 33 1b d0 bc
       0.23841056 0.21658267 -0.21685489 -0.025403595
0000b0 da eb 03 be 87 b4 da bd d5 97 0b be 9b f2 38 3e
       -0.12882939 -0.10678964 -0.13632138 0.18061297
0000c0 cd 9f c5 be 8b 3d 8c 3e 79 d2 ae be 90 1b 92 3e
       -0.3859848 0.27390704 -0.34144953 0.28536654
0000d0 40 08 79 3e 9b 50 37 be b3 24 95 bd cb df 74 be
       0.24319553 -0.17901842 -0.072823904 -0.23913495
0000e0 0a 8e 8f 3e 20 1b a5 3d e7 66 bc be 23 72 91 3e
       0.28038055 0.08061814 -0.36797258 0.28407392
0000f0 a4 cf 32 3e 16 43 39 3e 43 f5 99 3e 18 92 02 bf
       0.17462021 0.18091998 0.30069932 -0.5100417
000100 d2 1a 89 bb bc 16 8f be de f5 51 3e 1f b0 cb be
       -0.0041841054 -0.27947032 0.20503947 -0.39782807
000110 f1 c3 85 3e 43 af a2 3e da 68 88 be 27 37 5d be
       0.26126054 0.3177434 -0.26642495 -0.2160307
000120 46 45 86 3c 95 47 71 3e 01 71 81 bc 1e 8f 8a be
       0.016390454 0.23562463 -0.015800955 -0.27062315
000130 fa fb 63 3e e0 04 e2 3d ac 5d d0 be 2a 81 72 3e
       0.2226409 0.11036086 -0.40696466 0.23682085
000140 1d a0 57 bd b3 59 5c 3e 75 0e d7 3d 09 92 a2 bd
       -0.05264293 0.21518593 0.10500804 -0.0793801
000150 56 7e c9 be 9d c1 1c 3e 66 67 8e 3e 6c 2a 5e be
       -0.393542 0.15308233 0.27813262 -0.2169587
000160 3d 69 48 3e 89 24 a6 be 45 4f 01 3e fa 60 73 3e
       0.19571395 -0.3244975 0.12627895 0.23767462
000170 6c 98 5c 3e d3 70 d0 3d 13 9f 39 be cc e3 90 be
       0.2154252 0.101777695 -0.18127088 -0.28298795
000180 1e c0 d2 be af f2 19 3e 43 50 8a bd ca b5 c2 3e
       -0.411622 0.15033983 -0.0675359 0.3802932
000190 df 11 6d 3e 69 32 08 bf fb 16 0d 3e 02 46 c5 3e
       0.23151349 -0.5320192 0.13778298 0.38529974
0001a0 fc 5c 77 3e 1f 23 df bd c0 94 83 be cc 0d 19 3e
       0.24156564 -0.10895371 -0.25699425 0.1494667
0001b0 35 30 5c 3e 3c 94 aa bd c7 52 91 3e b0 1f b3 be
       0.21502765 -0.08329055 0.28383467 -0.34985113
0001c0 89 40 a8 be 4b 59 07 bf 4a 4d e7 3d 62 37 92 3e
       -0.32861736 -0.52870625 0.112940386 0.2855788
0001d0 93 ae bd bd 22 c2 6d be 6d 55 26 3e 56 a5 82 be
       -0.09261813 -0.23218587 0.16243525 -0.25516766
0001e0 b3 94 52 3e d7 e4 f1 be 1e 38 84 3e 78 37 84 3e
       0.20564537 -0.47244903 0.25824064 0.2582357
0001f0 98 77 82 3e 3e 04 8a be 0e e2 9c 3d 9a c9 5f be
       0.25481868 -0.26956362 0.07660304 -0.21854249
000200 fe d7 cf 3e 57 c6 17 be df 3b 34 be a1 9a e6 3d
       0.40594476 -0.14821754 -0.17600964 0.11259962
000210 aa 94 93 3e 41 ab 55 3e 60 d6 01 bd bf 5a 75 be
       0.2882436 0.2086611 -0.031698585 -0.23960398
000220 7c cc 7a be 2a 3b d9 3d 35 ac ae 3e f0 f8 8c 3d
       -0.24492067 0.10606988 0.3411576 0.068834186
000230 b7 dd ea be 7f 57 57 be c9 d9 66 3e e3 b0 a4 bd
       -0.4587228 -0.21029471 0.22544016 -0.08041551
000240 f0 0f 4a be 16 98 81 be 46 d0 94 3d 39 2b 86 3d
       -0.19732642 -0.25311345 0.072662875 0.06551213
000250 f8 9d c7 be 65 1c 2a be fc 7d 85 3e 54 45 2c be
       -0.38987708 -0.16612394 0.2607268 -0.16823322
000260 75 ef d1 bd 30 f7 7d bc e6 b6 d9 bd af 36 c0 be
       -0.10250751 -0.015500829 -0.10630588 -0.3754172
000270 75 6c 11 bf 2d 94 a3 bd 66 60 b2 3e 7a 95 9f 3e
       -0.5680612 -0.07987247 0.3483917 0.3116873
000280 b0 15 89 be dd 9e 53 3e ce 8f 8f 3e 23 8e 6f bc
       -0.2677436 0.2066607 0.28039402 -0.01462129
000290 3d 31 8b 3d 69 34 2c bd 59 4e f2 3d 85 26 e8 3c
       0.06796501 -0.04204217 0.1183135 0.02833868
0002a0 69 67 99 bd 01 e1 92 be 8f d7 bd 3e 71 ce 93 bd
       -0.07490427 -0.2868729 0.3707852 -0.0721711
0002b0 b0 15 4e be 5f 9e 39 bc 10 36 bc 3c 3a 96 80 3e
       -0.2012546 -0.0113292625 0.022974998 0.25114614
0002c0 c6 bf 61 be c4 ec a1 3e c7 70 cf be b3 56 73 3d
       -0.22045812 0.3162595 -0.4051573 0.059408855
0002d0 b5 8a 99 3d c9 10 5d 3e 7e f3 92 be e3 b7 8e 3e
       0.074971594 0.21588434 -0.28701395 0.2787467
0002e0 7a db 25 be b4 8a d3 be 2e 0a b9 3c de e5 74 bc
       -0.16197005 -0.4131676 0.022587862 -0.014947383
0002f0 c8 68 33 bf 55 96 15 3e 40 ba 16 3e 20 7a f9 3d
       -0.7008176 0.14608128 0.14719486 0.121814966
000300 ad a8 26 3e 5f 36 89 3e 2f 87 62 be f8 e8 c3 3d
       0.16275282 0.26799294 -0.22121881 0.0956592
000310 3b 58 83 3e ed fb b3 bd d3 d9 90 be 57 d7 e9 3d
       0.25653252 -0.087882854 -0.28291187 0.11418026
000320 62 e8 1a 3d 45 ca bf bd 7d 15 05 bd 2e e2 93 3e
       0.037819274 -0.09364752 -0.032491196 0.288835
000330 50 60 ba bc 19 9e 75 be 8c b5 b4 be 50 3b 9b 3e
       -0.022751004 -0.2398609 -0.3529476 0.3031869
000340 c1 af d0 bb 1a 0d cd 3e 15 bd 12 bf 5a 24 8e 3e
       -0.0063686077 0.40049058 -0.57319766 0.2776211
000350 d6 83 56 bd d7 33 88 be f8 ed 4b 3e 2d 5a c3 bd
       -0.052371822 -0.2660205 0.19914997 -0.09538684
000360 76 9a bd be d3 56 7e 3e d2 56 b5 bd 1c d7 03 3f
       -0.37031907 0.24837808 -0.0885445 0.51500106
000370 7c 83 d4 be 3f d9 9b 3e 2b cf b3 3e ac c4 59 be
       -0.41506565 0.30439183 0.35118994 -0.2126643
000380 37 e8 8a 3e 78 d1 c6 3d 81 dd a3 3e fd 3f a5 be
       0.2713029 0.09707922 0.32004932 -0.32275382
000390 33 3d 76 3e ea a0 5d 3e 29 b9 ef 3d 62 95 b1 bc
       0.24046783 0.21643415 0.11705238 -0.021677677
0003a0 e1 bf ff 3e af 10 7e 3e 78 40 83 be 03 43 8e be
       0.4995108 0.24811052 -0.25635123 -0.277855
0003b0 26 df ed 3c a9 d8 48 3e de a5 8c 3e 87 ac 82 be
       0.02903707 0.196139 0.27470297 -0.25522253
0003c0 52 a7 6e bc ab 93 81 be 59 67 9b 3e e7 ea bc 3e
       -0.014566259 -0.25307974 0.30352286 0.36897966
0003d0 61 c8 9d 3e b1 72 75 be 95 90 29 3e 84 07 f2 be
       0.3081694 -0.23969533 0.1655906 -0.4727136
0003e0 56 f4 a0 3e 45 f2 35 be dd 3b 98 be 93 79 ed 3d
       0.31436414 -0.177682 -0.29733172 0.11595454
0003f0 3f 98 3a be fa 8a cd 3b bf 9a ba bd 0b 47 61 3e
       -0.1822214 0.006272671 -0.09111547 0.21999757

intercepts1 f4 [1, 4]
000000 15 8b 80 3e 8e 45 5a 3d 3d 17 00 3e f9 13 1a be
       0.2510611 0.05328899 0.12508865 -0.15046681
