UserGuidanceAI/models/BurstSize_150/UserGuidanceAIMLP.onnx (onnx, 252287 bytes, 8 tensors)

coefficient f4 [2400, 23]
0.1243668 -0.08548527 -0.22979978 -0.0034517571 -0.03434207 -0.09699286 0.105209075 -0.12583601
-0.021944765 -0.030767113 -0.14428493 -0.019846328 0.013257556 0.13834122 0.17943527 -0.018074876
-0.08592941 -0.08060793 -0.098022535 0.016750278 0.043347906 0.13746622 0.040165503 0.12586984
-0.067443036 -0.119353354 -0.03435794 -0.045009524 -0.095351234 0.15553233 -0.15105574 -0.02210866
0.021090396 -0.1378105 -0.024892071 0.030979872 0.112469494 0.24642779 -0.07228687 -0.050996836
-0.046430513 -0.031806387 0.01860344 0.038847208 0.069814265 0.04522209 0.1347579 -0.13099833
-0.1603196 -0.03529409 -0.08496333 -0.0407392 0.079830505 -0.118488364 -0.021634573 -0.060332485
-0.13914612 -0.07382877 0.047190335 0.1203195 0.1680476 -0.038089238 -0.056065693 -0.11984989
-0.099485874 0.054445885 0.031774707 0.117192246 0.09792938 0.096677385 -0.07301425 -0.1773666
-0.037494563 -0.004986082 -0.057386376 0.065148845 -0.061610635 -0.034661997 0.006060239 -0.11525782
-0.0006698081 0.04239124 0.12551327 0.1915724 -0.052713513 -0.039240632 -0.10060592 -0.011648604
0.06722301 0.025075987 0.085565835 0.103044815 0.074617684 -0.08689908 -0.14829566 -0.010888101
-0.006558646 -0.025691515 0.03347104 -0.086236455 -0.020263094 -0.020438392 -0.11331894 -0.02905627
0.07324014 0.115767695 0.13961014 0.013600605 -0.06265534 -0.045071557 -0.1018111 0.011983406
0.061886713 0.13677323 0.0086843595 0.112295136 -0.03529838 -0.10045566 0.039556567 -0.12554747
-0.041026834 0.028261181 -0.14114235 0.02288476 0.006832001 -0.14032441 -0.016075911 0.07210672
0.07046117 0.15888512 -0.040319573 -0.091230005 -0.08411209 -0.12233107 0.084052674 -0.0063650087
0.14114484 0.03234861 0.11354189 -0.020716423 -0.12551878 -0.010883222 -0.1673842 0.005862866
0.041666053 -0.116476886 0.0634639 0.0056893826 -0.09187761 -0.08655019 0.002465799 0.14817707
0.18739721 -0.112787694 -0.18182458 -0.06420269 -0.10499914 0.0472433 0.07466573 0.14906469
0.019644577 0.06040884 -0.061406683 -0.085003614 -0.013679662 -0.10351568 -0.02090234 0.08771408
-0.086794294 0.035103228 -0.03168062 -0.09649862 -0.020194866 0.026521614 0.1050442 0.21601693
-0.021396978 -0.12621202 -0.12630364 -0.08952654 0.060425524 -0.018326957 0.15152703 -0.00047181986
0.036683664 -0.06412441 -0.15596958 0.03381846 -0.014268967 0.062050436 0.09907697 -0.14013766
0.037820205 0.008602425 -0.1182277 0.02150786 -0.0063954596 0.05545851 0.2051398 0.024303703
-0.023987308 -0.07609849 -0.03423451 0.057618413 -0.009671216 0.13094006 0.065669864 0.056065876
-0.049684122 -0.06835249 0.005611192 0.08545362 -0.061041165 0.03479068 -0.13346155 -0.029978193
-0.031925045 -0.124806404 0.012522333 -0.009060362 0.0452273 0.16128124 -0.020492282 -0.01682636
-0.108292095 -0.013969308 0.053243913 0.024798492 0.1607727 0.08939485 0.05401751 -0.10746961
-0.08385861 0.000806997 0.015688658 -0.0096594915 0.008892916 -0.089381486 -0.033963982 0.0023583614
-0.13800983 0.026027039 0.053985614 0.050982468 0.18998724 0.0070301495 -0.08885776 -0.097568825
-0.02362828 0.093109384 -0.023568738 0.15144844 0.031752374 0.11724188 -0.096847035 -0.0814698
00000000: 05b4 fe3d e712 afbd a250 6bbe e036 62bb
00000010: 45aa 0cbd 31a4 c6bd db77 d73d 28db 00be
00000020: 82c5 b3bc 500b fcbc 6ebf 13be c494 a2bc
00000030: 3836 593c 52a9 0d3e e1bd 373e c311 94bc
00000040: c2fb afbd c515 a5bd 0ac0 c8bd e137 893c
00000050: 938d 313d f2c3 0c3e 9584 243d 06e4 003e
00000060: 931f 8abd 886f f4bd e9ba 0cbd e85b 38bd
00000070: 8247 c3bd de43 1f3e 5bae 1abe 381d b5bc
00000080: c4c5 ac3c 321e 0dbe 75ea cbbc 80c9 fd3c
00000090: 6856 e63d 9157 7c3e 230b 94bd 0fe2 50bd
000000a0: ec2d 3ebd 6a47 02bd 3e66 983c 401e 1f3d
000000b0: c8fa 8e3d cc3a 393d fafd 093e 6d24 06be
000000c0: d22a 24be 8990 10bd 4101 aebd 26de 26bd
000000d0: 2d7e a33d 07aa f2bd fd3a b1bc 321f 77bd
000000e0: 527c 0ebe 8a33 97bd a74a 413d 126a f63d
000000f0: ac14 2c3e 7603 1cbd 24a5 65bd dc73 f5bd
00000100: 40bf cbbd a602 5f3d 3226 023d 7d02 f03d
00000110: 338f c83d cbfe c53d 7f88 95bd 979f 35be
00000120: e693 19bd 4a62 a3bb fa0d 6bbd c26c 853d
00000130: 6f5b 7cbd bdf9 0dbd f894 c63b 4b0c ecbd
00000140: 1096 2fba 70a2 2d3d 8d86 003e 8e2b 443e
00000150: 20ea 57bd c9ba 20bd 7a0a cebd c9d9 3ebc
00000160: 38ac 893d 286c cd3c 243d af3d 2909 d33d
00000170: 28d1 983d 25f8 b1bd d1da 17be 0164 32bc
00000180: e9e9 d6bb 0377 d2bc ee18 093d bd9c b0bd
00000190: cafe a5bc 6a6e a7bc c313 e8bd 6a07 eebc
000001a0: edfe 953d 9d17 ed3d f6f5 0e3e 12d5 5e3c
000001b0: 7151 80bd f49c 38bd 5782 d0bd 0c56 443c
000001c0: ec7c 7d3d 480e 0c3e d848 0e3c fefa e53d
000001d0: 0995 10bd b2bb cdbd 1106 223d 848f 00be
000001e0: c10b 28bd fe83 e73c 9f87 10be d278 bb3c
000001f0: fade df3b 34b1 0fbe a1b1 83bc b0ac 933d
00000200: f24d 903d c8b2 223e 2326 25bd ccd6 babd
00000210: f642 acbd b688 fabd cf23 ac3d 9091 d0bb
00000220: 4688 103e fa7f 043d a788 e83d 7db5 a9bc
00000230: ff87 00be 8b4f 32bc c466 2bbe 491d c03b
00000240: 06aa 2a3d 6f8b eebd 5cf9 813d 006e ba3b
00000250: 542a bcbd 3a41 b1bd 3e99 213b bbbb 173e
00000260: 0ee5 3f3e 3cfd e6bd 3930 3abe b37c 83bd
00000270: ca09 d7bd 3182 413d 59ea 983d 6aa4 183e
00000280: aaed a03c 436f 773d 9385 7bbd 6016 aebd
00000290: a920 60bc 0700 d4bd 623b abbc 71a3 b33d
000002a0: 35c1 b1bd 67c8 0f3d 8ac3 01bd 12a1 c5bd
000002b0: b46f a5bc db43 d93c 6a21 d73d 8b33 5d3e
000002c0: b748 afbc b93d 01be be55 01be b159 b7bd
000002d0: c180 773d 6a22 96bc e729 1b3e 975e f7b9
000002e0: 9c41 163d a953 83bd 7db6 1fbe 3a85 0a3d
000002f0: 63c8 69bc 9928 7e3d dee8 ca3d 3f80 0fbe
00000300: 5ce9 1a3d 30f1 0c3c 5d21 f2bd 4031 b03c
00000310: 0191 d1bb 7628 633d 2b10 523e 8f18 c73c
00000320: 0881 c4bc 86d9 9bbd 7c39 0cbd 4901 6c3d
00000330: 0574 1ebc 2715 063e ec7d 863d 55a5 653d
00000340: 9481 4bbd 64fc 8bbd 17de b73b 4f02 af3d
00000350: 4d06 7abd ac80 0e3d 25aa 08be d494 f5bc
00000360: d6c3 02bd 809a ffbd 792a 4d3c ea71 14bc
00000370: 4340 393d e926 253e 6edf a7bc 6fd7 89bc
00000380: 3fc8 ddbd 86df 64bc 4a16 5a3d 3526 cb3c
00000390: 99a1 243e a614 b73d 7741 5d3d 0719 dcbd
000003a0: 10be abbd a78c 533a 8085 803c d842 1ebc
000003b0: 98b3 113c a40d b7bd d11d 0bbd bd8e 1a3b
000003c0: 7352 0dbe a836 d53c 0520 5d3d fed2 503d
000003d0: 048c 423e 2b5d e63b 0ffb b5bd 2ad2 c7bd
000003e0: 1890 c1bc 22b0 be3d 3a13 c1bc 4d15 1b3e
000003f0: c70e 023d 831c f03d bd57 c6bd a3d9 a6bd

intercepts f4 [1, 23]
0.1397928 0.013496829 -0.049343057 0.06120109 0.008088214 -0.106678635 0.121554025 0.17966075
-0.16585493 0.09881777 -0.10188694 -0.096151516 0.10006905 0.070672296 0.106309585 -0.052101564
0.018955523 -0.15461417 0.037841953 0.017278897 0.013435826 0.011549672 -0.016036125
00000000: d825 0f3e ce21 5d3c f21b 4abd ffad 7a3d
00000010: 6e84 043c 547a dabd 51f1 f83d fdf8 373e
00000020: e0d5 29be f960 ca3d 1aaa d0bd 16eb c4bd
00000030: 01f1 cc3d a3bc 903d d7b8 d93d 7368 55bd
00000040: 9d48 9b3c 2d53 1ebe 2a00 1b3d 798c 8d3c
00000050: f021 5c3c d63a 3d3c 315e 83bc

coefficient1 f4 [23, 14]
-0.18010782 0.095633104 -0.3518923 -0.51488054 0.06767691 0.3544221 -0.09689537 0.055370294
0.25379932 0.49811503 -0.3713318 0.0 -0.29658258 -0.432895 0.30216673 0.425979
-0.34764808 0.2385752 0.3106104 -0.12290676 -0.08919738 0.06440969 0.01002514 0.33096245
-0.31361884 -0.0 0.35591343 -0.316816 0.43738765 0.060108934 0.1951349 0.15401426
-0.12500449 0.2122717 -0.32365745 0.48967198 -0.00636035 -0.46383625 -0.16371012 0.0
0.05361417 -0.48738867 -0.16855042 0.112515055 -0.26939327 0.20853777 0.41387466 0.20937733
0.11621741 -0.54750156 -0.14195672 0.2555662 -0.26780465 -0.0 -0.5659463 0.23779024
-0.19623849 0.28443924 0.32002628 -0.2413597 0.36546406 0.11492547 0.1532428 -0.012955539
0.18913282 0.08423668 0.23864841 4.8889e-41 -0.4671876 0.37975085 0.2779774 -0.20186535
-0.12919876 -0.46978763 -0.057048198 0.31852958 0.33202723 -0.5086151 0.26000422 0.03549202
0.35715917 -0.0 0.24994189 -0.078200616 -0.33977926 0.453063 -0.073923774 -0.32874924
-0.2994955 -0.19671217 -0.25904098 -0.008878584 0.32945493 -0.19537799 -0.11148936 -0.0
-0.034696627 0.28032076 -0.10574389 0.5166224 -0.04185793 -0.5585553 -0.21624091 0.173627
-0.24659829 -0.3738371 0.14087878 -0.3449136 -0.055886365 -0.0 0.37645623 0.4332312
-0.13953152 0.050782982 -0.2809191 -0.13353175 0.2387479 -0.12891246 -0.250749 -0.2567598
0.09705574 0.2327769 -0.32303157 0.0 0.25363976 -0.35046571 -0.007349586 -0.1848032
0.2971362 0.43786862 0.3532462 0.018489579 -0.15047254 0.31990775 -0.41045555 -0.19135496
0.12693784 -0.0 0.10141648 0.4357277 0.017790228 -0.35129833 0.40143177 -0.4001424
-0.17417097 -0.2739061 0.2644877 -0.42384353 0.50142664 0.027782377 0.19847377 8.5e-44
-0.3186689 0.079168655 0.102481045 -0.32803932 -0.19988509 0.26361942 -0.022536572 -0.20198706
0.39834213 -0.33677375 -0.09647473 0.38034043 -0.07547038 -0.0 -0.2048449 0.27795315
0.12013199 0.36728546 0.259102 0.28817418 0.43828517 0.2426466 -0.2744588 0.056955937
-0.35295215 -0.18568549 0.08406969 -0.0 -0.2795462 -0.02138452 -0.022952333 0.35462478
0.3055683 0.30836973 0.18445936 -0.41097423 -0.338986 -0.53503966 -0.16814616 0.2473941
-0.19082868 0.0 0.20769696 0.116647795 -0.08849114 0.16262245 -0.1561606 -0.21849701
0.027003001 0.23672335 0.14363733 -0.35600773 0.41355857 -0.44724986 -0.34082884 2.4922e-41
-0.21690568 -0.062325332 -0.23460357 -0.32236698 -0.29737404 -0.07338541 0.43790886 -0.13683693
-0.4341686 0.31370473 -0.2724068 0.07906478 -0.0036265047 0.0 -0.1832585 0.04527915
-0.425621 -0.2593438 -0.24474473 -0.037223414 0.033214677 0.2835679 -0.28017783 -0.31176808
-0.4667395 -0.47088492 0.06925973 0.0 -0.19044363 0.5215546 0.018825766 -0.48083517
0.43109083 -0.34569237 -0.19964446 0.547887 0.37749833 -0.3097206 0.15283424 0.17195866
-0.18230219 -0.0 -0.17250082 -0.30229753 0.2942181 0.16610135 0.35808757 -0.06265073
00000000: 2f6e 38be 4adb c33d 3a2b b4be 36cf 03bf
00000010: 319a 8a3d d076 b53e 1471 c6bd f6cb 623d
00000020: fcf1 813e ef08 ff3e 341f bebe 0000 0000
00000030: acd9 97be 6aa4 ddbe 99b5 9a3e eb19 da3e
00000040: eefe b1be 0f4d 743e 5408 9f3e 8ab6 fbbd
00000050: 1ead b6bd 3ae9 833d 7c40 243c e973 a93e
00000060: a692 a0be 0000 0080 493a b63e b535 a2be
00000070: 46f1 df3e c934 763d 71d1 473e eab5 1d3e
00000080: 2d01 00be c15d 593e 6eb6 a5be 49b6 fa3e
00000090: 7c6a d0bb f27b edbe a0a3 27be 0000 0000
000000a0: 889a 5b3d 028b f9be 7b98 2cbe 4b6e e63d
000000b0: eaed 89be ed8a 553e 61e7 d33e 0367 563e
000000c0: 6503 ee3d 1029 0cbf 1a5d 11be 93d9 823e
000000d0: b11d 89be 0000 0080 dbe1 10bf 497f 733e
000000e0: bef2 48be 05a2 913e 7cda a33e ff26 77be
000000f0: 1b1e bb3e 0b5e eb3d aeeb 1c3e 7843 54bc
00000100: 09ac 413e 4884 ac3d 4060 743e 4888 0000
00000110: 3733 efbe b46e c23e 0e53 8e3e cab5 4ebe
00000120: ae4c 04be 0188 f0be 5fab 69bd 4f16 a33e
00000130: 79ff a93e 9934 02bf 461f 853e 1560 113d
00000140: 91dd b63e 0000 0080 c4f0 7f3e a527 a0bd
00000150: 8cf7 adbe e0f7 e73e 5965 97bd d251 a8be
00000160: 7957 99be ea6e 49be 05a1 84be 7b77 11bc
00000170: 51ae a83e 2b11 48be 8954 e4bd 0000 0080
00000180: 0d1e 0ebd 3486 8f3e 4190 d8bd 5e41 043f
00000190: 3973 2bbd 7bfd 0ebf 426e 5dbe 47cb 313e
000001a0: 4384 7cbe 9467 bfbe 8742 103e 8498 b0be
000001b0: 1ae9 64bd 0000 0080 dfbe c03e 7bd0 dd3e
000001c0: 5ae1 0ebe d101 503d a1d4 8fbe 8cbc 08be
000001d0: 547a 743e a101 04be 2c62 80be 0576 83be
000001e0: 29c5 c63d 115d 6e3e 6564 a5be 0000 0000
000001f0: 12dd 813e 3e70 b3be ccd4 f0bb 0d3d 3dbe
00000200: 3c22 983e 5130 e03e b0dc b43e 7577 973c
00000210: 7915 1abe f3ca a33e 3b27 d2be 8ef2 43be
00000220: fefb 013e 0000 0080 72b3 cf3d b317 df3e
00000230: d0bc 913c 60dd b3be 7788 cd3e 77df ccbe
00000240: e059 32be 6c3d 8cbe ef6a 873e 0502 d9be
00000250: 7f5d 003f de97 e33c b53c 4b3e 3d00 0000
00000260: 9228 a3be 2d23 a23d 95e1 d13d c5f4 a7be
00000270: adae 4cbe 20f9 863e 9e9e b8bc b2d5 4ebe
00000280: 80f3 cb3e 9c6d acbe 8b94 c5bd fbbb c23e
00000290: 3790 9abd 0000 0080 ddc2 51be e04f 8e3e
000002a0: c307 f63d d70c bc3e 04a9 843e 918b 933e
000002b0: ea66 e03e 5a78 783e dd85 8cbe a14a 693d
000002c0: 25b6 b4be 5624 3ebe bb2c ac3d 0000 0080
000002d0: ae20 8fbe 972e afbc 8806 bcbc 6191 b53e
000002e0: 7373 9c3e a3e2 9d3e eae2 3c3e 376b d2be
000002f0: 938f adbe 5cf8 08bf 822e 2cbe e154 7d3e
00000300: 9868 43be 0000 0000 83ae 543e 0ae5 ee3d
00000310: d83a b5bd 8086 263e 90e8 1fbe aebd 5fbe
00000320: 6635 dd3c 9b67 723e aa15 133e a546 b6be
00000330: f3bd d33e effd e4be 1e81 aebe 7945 0000
00000340: 861c 5ebe d948 7fbd eb3b 70be 490d a5be
00000350: 6941 98be 174b 96bd 9735 e03e fb1e 0cbe
00000360: 594b debe e89d a03e e778 8bbe b7ec a13d
00000370: a7aa 6dbb 0000 0000 1ea8 3bbe a176 393d
00000380: ffea d9be b6c8 84be 5d9e 7abe 9477 18bd
00000390: 1d0c 083d d02f 913e 7873 8fbe 11a0 9fbe
000003a0: 7bf8 eebe d417 f1be 0cd8 8d3d 0000 0000
000003b0: a803 43be 9a84 053f 7e38 9a3c 0730 f6be
000003c0: f0b7 dc3e 97fe b0be 996f 4cbe 5342 0c3f
000003d0: 7647 c13e b393 9ebe 9480 1c3e ee15 303e
000003e0: 6dad 3abe 0000 0080 0ea4 30be bec6 9abe
000003f0: c1a3 963e 7916 2a3e 4157 b73e 074f 80bd

intercepts1 f4 [1, 14]
-0.082143985 0.39417252 -0.22651042 0.35949582 -0.05577838 0.31611252 -0.40787357 -0.33194333
0.15977082 -0.26760593 0.27709448 -0.343443 -0.30426022 0.019600883
00000000: 1b3b a8bd fbd0 c93e 59f2 67be d60f b83e
00000010: df77 64bd 80d9 a13e ced4 d0be 7af4 a9be
00000020: f69a 233e a503 89be 54df 8d3e c3d7 afbe
00000030: ffc7 9bbe 0892 a03c

coefficient2 f4 [14, 8]
-0.31307337 -0.53371906 0.5587697 0.59324414 0.41498405 0.46015263 0.27957806 0.30507243
0.6121323 0.3188242 -0.14214176 0.2097278 -0.13337748 0.08226617 -0.019098567 -0.34705517
-0.25172588 0.4747668 0.41978896 -0.51246107 0.4588528 -0.018656816 -0.5301569 0.20014256
-0.2952388 0.48282322 -0.4708495 -0.30471882 -0.05879233 0.0034830626 0.045844987 0.6003116
0.32136706 0.38942248 0.20621024 -0.39080018 -0.5540398 0.2981805 0.54419386 -0.07534661
-0.07157397 0.6336624 -0.3020501 0.53738976 -0.020973515 -0.3671182 0.5453828 -0.5256008
-0.13671033 0.4406818 0.49378592 0.3470752 0.16409194 0.47245365 -0.47589308 0.018815255
-0.3055408 0.56307876 0.20068918 -0.28732705 0.4650532 -0.41315442 0.30214515 -0.7769211
-0.5487816 -0.3437588 -0.4643772 0.38108742 -0.6051308 0.5388586 -0.36126378 0.5276181
-0.37869182 -0.59370005 0.6070673 0.17621695 0.08810118 0.08067904 0.38968074 0.4239607
-0.40347078 -0.4486093 0.43972352 -0.22528899 0.2308473 0.35640347 0.3848157 0.45009613
0.0 -0.0 1.5366415e-32 0.0 -6.2150338e-31 0.0 -4.120398e-30 0.0
-0.22844934 -0.28037414 0.26097092 0.006872199 0.36922407 0.46644998 -0.2607784 -0.14644374
0.016429963 0.31378806 -0.025889236 0.14357942 0.5828995 0.002414378 0.0022908824 -0.30281982
00000000: 274b a0be d0a1 08bf 880b 0f3f d9de 173f
00000010: ca78 d43e 2099 eb3e db24 8f3e 7432 9c3e
00000020: b4b4 1c3f ed3c a33e 9c8d 11be e2c2 563e
00000030: 1b94 08be 2a7b a83d 9974 9cbc 37b1 b1be
00000040: 37e2 80be a214 f33e 94ee d63e a630 03bf
00000050: c1ee ea3e 2ed6 98bc 5db8 07bf 2cf2 4c3e
00000060: 8a29 97be 9b34 f73e 3013 f1be 1b04 9cbe
00000070: 3ad0 70bd 1844 643b f4c7 3b3d 05ae 193f
00000080: 398a a43e 6262 c73e c728 533e f616 c8be
00000090: 8dd5 0dbf 1dab 983e 4a50 0b3f 534f 9abd
000000a0: 6095 92bd b337 223f 50a6 9abe 6092 093f
000000b0: a6d0 abbc ebf6 bbbe 359e 0b3f c68d 06bf
000000c0: cbfd 0bbe 0ba1 e13e 82d1 fc3e d7b3 b13e
000000d0: b807 283e 72e5 f13e 42a8 f3be 7322 9a3c
000000e0: d86f 9cbe ee25 103f 7781 4d3e 881c 93be
000000f0: 741b ee3e fa88 d3be c5b2 9a3e 4de4 46bf
00000100: f37c 0cbf 2701 b0be d9c2 edbe e41d c33e
00000110: dae9 1abf a3f2 093f 91f7 b8be fb11 073f
00000120: e5e3 c1be bafc 17bf c368 1b3f 3772 343e
00000130: 646e b43d 0d3b a53d 3c84 c73e 6011 d93e
00000140: b993 cebe 1eb0 e5be 7123 e13e 28b2 66be
00000150: 3c63 6c3e 847a b63e 9006 c53e 0073 e63e
00000160: 0000 0000 0000 0080 f092 9f0a 0000 0000
00000170: 7bb0 498d 0000 0000 a924 a78e 0000 0000
00000180: a0ee 69be 338d 8fbe fb9d 853e 2f30 e13b
00000190: f00a bd3e 88d2 ee3e bf84 85be 59f5 15be
000001a0: 2198 863c d4a8 a03e aa15 d4bc 7c06 133e
000001b0: e738 153f 8b3a 1e3b a122 163b 330b 9bbe

intercepts2 f4 [1, 8]
0.09746941 0.39380938 0.075953245 0.47549075 0.18166375 0.34731966 0.08406876 0.23442198
00000000: 0b9e c73d 62a1 c93e 608d 9b3d 8673 f33e
00000010: 1006 3a3e e2d3 b13e 3e2c ac3d 510c 703e

coefficient3 f4 [8, 4]
-0.72842807 -0.64809215 0.25639325 0.75162834 -0.37222072 -0.5572628 -0.08909837 0.658006
0.5694524 0.06388686 0.77731067 -0.5125682 -0.46200716 0.7261636 0.23721051 -0.2832783
0.33829698 0.22110221 0.862549 -0.80432564 0.37102067 0.8211949 0.42167494 -0.5712418
0.36808664 -0.9483958 -0.13743863 0.23908646 0.73295105 -0.31064388 -0.65002674 0.018888095
00000000: 437a 3abf 5ee9 25bf fa45 833e b76a 403f
00000010: b793 bebe c6a8 0ebf 3579 b6bd 1573 283f
00000020: a2c7 113f 1dd7 823d d5fd 463f ab37 03bf
00000030: 348c ecbe dce5 393f 50e7 723e da09 91be
00000040: 4335 ad3e 9e68 623e 03d0 5c3f 49e8 4dbf
00000050: 6cf6 bd3e d439 523f c7e5 d73e e73c 12bf
00000060: da75 bc3e 11ca 72bf b6bc 0cbe 15d3 743e
00000070: aea2 3b3f b70c 9fbe 2768 26bf 35bb 9a3c

intercepts3 f4 [1, 4]
-0.30905333 -0.5619097 -0.22795938 0.46849018
00000000: 3d3c 9ebe 50d9 0fbf 2f6e 69be f2dd ef3e
