UserGuidanceAI/models/BurstSize_210/UserGuidanceAIMLP.onnx (onnx, 351407 bytes, 8 tensors)

coefficient f4 [3360, 23]
0	0xbd2e9678	-0.042623967
1	0x3be1d6d9	0.006892067
2	0xbc3c1101	-0.011478663
3	0xbd9fcf1b	-0.07803174
4	0xbc44e25d	-0.01201686
5	0xbd81657b	-0.06318184
6	0xbda6443e	-0.08118485
7	0x3ca66a97	0.020314498
8	0xbc2d5899	-0.010580205
9	0x3bd82902	0.0065966854
10	0x3c8b6be7	0.017019225
11	0x3c2aeefc	0.010432955
12	0xbdb31156	-0.08743541
13	0x3c6782fb	0.014130349
14	0xba234709	-0.00062285416
15	0x3c65bb5d	0.014021722
16	0x3c7e95f3	0.01553868
17	0xbc031377	-0.008000246
18	0xbc05e1d8	-0.008171521
19	0xbcae6e41	-0.021292808
20	0x3d834f15	0.06411568
21	0x3df2beba	0.118527845
22	0xbbceaf42	-0.0063075135
23	0xbc679e4f	-0.014136865
24	0x3cba6511	0.02275327
25	0x3d738d38	0.05946085
26	0xbdbedf7a	-0.093199685
27	0xbcd79e6b	-0.026320657
28	0xbd49ce9c	-0.049269304
29	0xbc6126f0	-0.013742194
30	0xbc055551	-0.008138017
31	0xbbe9da67	-0.0071366313
32	0x3d231d9c	0.03982316
33	0x3cc9a8a2	0.024616543
34	0x3c719c21	0.014746697
35	0xbd97e1bf	-0.074161045
36	0x3bdce83d	0.006741552
37	0x3d88da20	0.06682229
38	0xbd127f75	-0.035766084
39	0x3d2d5acd	0.042322922
40	0x3d1658e4	0.036705866
41	0x3d30604d	0.04306059
42	0xbc4c3e66	-0.012466049
43	0x3d603564	0.054738417
44	0x3d2aad24	0.041669026
45	0x3a51f43c	0.0008009111
46	0x3c054032	0.008132981
47	0xbcb97f3a	-0.022643674
48	0x3c07d75c	0.008291092
49	0xbdb45c0a	-0.088066176
50	0xbd03d6ba	-0.0321872
51	0xbb2c6738	-0.002630664
52	0xbd826306	-0.063665435
53	0x3b1af837	0.0023646483
54	0x3b9ce18c	0.0047876295
55	0xbd11d711	-0.035605494
56	0x3cf7ba64	0.030240245
57	0xbccffc30	-0.025388807
58	0xbd4ba17f	-0.04971456
59	0x3c227d0c	0.009917509
60	0x3ab34117	0.0013676014
61	0xbb297c27	-0.0025861354
62	0x3d33821e	0.04382526
63	0xbbf6fdd5	-0.0075375834
64	0xbc849d4c	-0.016188286
65	0x3bfff435	0.007811094
66	0x3d0e8b83	0.034801017
67	0x3d964338	0.0733704
68	0x3d217650	0.039419472
69	0xbc998430	-0.01873979
70	0x3cfdc0e2	0.030975763
71	0xbbabc4c1	-0.0052419608
72	0xbdb76b85	-0.089560546
73	0x3d0599c3	0.03261734
74	0xbca82873	-0.0205271
75	0xbd8912d7	-0.066930465
76	0x3d6144c0	0.054997206
77	0x3b1a9ae8	0.0023590866
78	0x3cd4483e	0.025913354
79	0x3d26d2ab	0.040728252
80	0x3d1bfeb2	0.038084693
81	0xbd4318d3	-0.047631096
82	0x3c321d0d	0.010871184
83	0x3c5f246d	0.013619524
84	0xbc874cb1	-0.016516061
85	0x3d884f21	0.06655718
86	0x3c84fcd0	0.016233832
87	0x3d769517	0.060200777
88	0x3c9f174e	0.019420292
89	0x3d0b3a66	0.03399124
90	0x3d29246a	0.041294493
91	0x3d11bd6d	0.03558104
92	0xbce9ef59	-0.028556513
93	0x3bb9c83e	0.0056696227
94	0x3be150b7	0.006876077
95	0xbd9d3e24	-0.07677868
96	0x3d340e61	0.043959025
97	0x3a042fc7	0.000504252
98	0xbda827de	-0.08210729
99	0x3caa85e8	0.020815805
100	0x3bf7163b	0.007540492
101	0x3c340bb3	0.010989117
102	0x3d509ad8	0.05092892
103	0x3aed912d	0.0018124931
104	0xbcb8c2b0	-0.022553772
105	0x3b8439ee	0.004035226
106	0xbc7aa2a8	-0.015297569
107	0x3d2c836c	0.04211752
108	0x3d4a8d30	0.049451053
109	0x3d8edad9	0.06975336
110	0xbc2098b4	-0.009802032
111	0xbcdfd1ec	-0.027321778
112	0x3d6432d8	0.05571255
113	0x3db03618	0.086040676
114	0xbd244699	-0.04010639
115	0x3b17e2d5	0.0023175974
116	0x3cc944b8	0.0245689
117	0x3d4b838b	0.049685996
118	0xbd229f32	-0.0397026
119	0xbccfa33f	-0.025346396
120	0xbd3c2544	-0.045933977
121	0xbda37c6b	-0.07982715
122	0xbcd6d560	-0.026224792
123	0x3c1d4daa	0.009601036
124	0x3d1f878c	0.038947627
125	0x3cb0f229	0.021599846
126	0x3c5ef12b	0.013607304
127	0xbcdd1012	-0.026985202
128	0xbd16a592	-0.036778994
129	0x3abfa781	0.0014622064
130	0x3bfb387f	0.007666647
131	0x3da68dfc	0.0813255
132	0x3d3e2411	0.046421114
133	0xbcc80089	-0.024414318
134	0x3ce034d0	0.027368933
135	0xbb1b9645	-0.002374069
136	0x3dc48638	0.09595913
137	0xbc28e97d	-0.010309574
138	0x3c874d1c	0.01651626
139	0x3ce6d88e	0.028179433
140	0x3c9b702c	0.018974386
141	0xbdbbd5a3	-0.09171607
142	0xbd07bac4	-0.033137098
143	0xbd0c4db9	-0.03425381
144	0xbd9df1e5	-0.07712153
145	0xbca107e5	-0.019657085
146	0x3b89b0df	0.004201993
147	0x3cce6f93	0.025199687
148	0x3ca77c53	0.020445025
149	0xbcf826c4	-0.030291922
150	0xbdc20783	-0.09474089
151	0x3d0e96a9	0.03481165
152	0x3cd01869	0.025402265
153	0xbcbaa99f	-0.02278596
154	0x3c768275	0.015045752
155	0x3d7b36dc	0.061331615
156	0xbbfdadce	-0.0077416664
157	0x3bfea084	0.0077706
158	0x3d69a9f8	0.05704686
159	0x3dc4f30a	0.096166685
160	0xbcb691f4	-0.022286393
161	0xbc4eb8e4	-0.012617324
162	0x3ca0a127	0.019608093
163	0x3d086c39	0.033306334
164	0xbdc1399c	-0.09434816
165	0xbd1a158f	-0.037618216
166	0xbd1e70ce	-0.038681798
167	0xbd2d4d7d	-0.042310227
168	0x3c8239dd	0.015896732
169	0x3d26ac50	0.040691674
170	0xbb801ad3	-0.0039094477
171	0x3d5f8ee0	0.054579616
172	0x3c9c33d8	0.01906769
173	0xbd7fa9e6	-0.062417887
174	0xb9dc5548	-0.0004202521
175	0x3d20f19a	0.03929291
176	0x3c80379b	0.015651515
177	0x3bb5cbd5	0.0055479803
178	0x3c00a867	0.00785265
179	0x3bb57751	0.0055379053
180	0x3c4bfd8c	0.012450587
181	0xbc0899f4	-0.008337487
182	0x3db811f9	0.08987803
183	0xbd12f803	-0.035881054
184	0xbcc1dbd0	-0.023664385
185	0x3d12ad17	0.035809603
186	0xbceb06c5	-0.028689751
187	0xbd8436f8	-0.06455797
188	0xbbc0e343	-0.0058864667
189	0x3d05b5d6	0.032644115
190	0xbd7000ef	-0.05859464
191	0xbcc8e943	-0.02452529
192	0x3d6c3932	0.057671733
193	0x3cf0b6ad	0.029383982
194	0x3d4b6f24	0.04966654
195	0x3d4aac53	0.049480747
196	0xbdb749b6	-0.08949606
197	0xbcc0ee05	-0.023550997
198	0x3ce7ffaf	0.028320162
199	0x3d114e0d	0.035474826
200	0x3d78b9c7	0.060724046
201	0x3d2d8805	0.042366046
202	0x3d4077bd	0.04698919
203	0x3c863ad7	0.016385479
204	0x3ad4eaca	0.0016244289
205	0x3d6d0db6	0.057874404
206	0x3c0a2095	0.00843062
207	0xbb18efb2	-0.002333623
208	0x3d4d8387	0.050174262
209	0x3ce8e48a	0.028429288
210	0xbd991f25	-0.074766435
211	0x3d0d5b66	0.034510992
212	0xbce6c81e	-0.028171595
213	0xbd88eb9d	-0.06685565
214	0xbcb611d3	-0.022225296
215	0x3cfb6080	0.030685663
216	0xbce6d4b9	-0.028177606
217	0x3d1f550b	0.038899463
218	0x3d227d4e	0.03967028
219	0xbdb27f45	-0.08715681
220	0xbcd356c3	-0.025798207
221	0x3c397dac	0.011321466
222	0xbd166464	-0.036716834
223	0x3d2e3ba0	0.04253733
224	0x3c37563a	0.011189992
225	0x3d44a103	0.048005115
226	0x3bfe4450	0.0077596083
227	0x3d1d6f13	0.038436007
228	0x3db99e78	0.09063429
229	0x3d0553d1	0.032550637
230	0xbc544507	-0.0129559105
231	0x3cb21475	0.02173827
232	0x3c835ee7	0.016036464
233	0xbd9e342d	-0.077247955
234	0xbb9ef771	-0.0048512747
235	0x3c07bb5b	0.008284415
236	0xbda76154	-0.08172861
237	0x3c83acae	0.016073551
238	0x3cae9a30	0.021313757
239	0x3d284b5c	0.041087493
240	0xbc87fb7e	-0.016599413
241	0x3d375db1	0.044767085
242	0xbd18eca0	-0.03733504
243	0xbccc99c0	-0.024975657
244	0x3d5cd74b	0.053916257
245	0x3abb394a	0.0014284041
246	0xbc896106	-0.016769897
247	0x3c09de08	0.008414753
248	0x3cd19094	0.025581636
249	0x3d0c507d	0.034256447
250	0xbcfd23e3	-0.030900901
251	0x3dd4321a	0.103611186
252	0xbc2d23c0	-0.0105676055
253	0x3cd95705	0.026530752
254	0x3d094112	0.03350932
255	0x3cae6239	0.02128707

intercepts f4 [1, 23]
0	0xbb4b8169	-0.0031052476
1	0x3d8e67b6	0.06953375
2	0xbc75eb7e	-0.015009759
3	0x3c225503	0.009907964
4	0xbc95b0f1	-0.018272849
5	0xbc8768c1	-0.016529443
6	0x3d5701fc	0.052492127
7	0xbd5d406c	-0.054016516
8	0xbc97d34d	-0.018533373
9	0x3d82d3bd	0.06388042
10	0x3ce3a715	0.027789632
11	0xbc7460e3	-0.014915678
12	0x3bdee7d8	0.0068025403
13	0xbd6050fe	-0.05476474
14	0xbcc0ac17	-0.023519559
15	0x39ba6ca8	0.0003555764
16	0xbc1a23a1	-0.009407909
17	0xbc2b0a12	-0.010439413
18	0xbcb06e13	-0.021536862
19	0x3d716132	0.058930583
20	0x3d48d546	0.04903152
21	0xbcc3a540	-0.023882508
22	0x3dd04100	0.10168648

coefficient1 f4 [23, 14]
0	0xbd664355	-0.056216557
1	0xbddc7e9c	-0.10766336
2	0x3e8e046a	0.27737743
3	0xbb3742b4	-0.0027963342
4	0xbe7736f0	-0.2414205
5	0xbc717fea	-0.01473997
6	0x3ec6c9e9	0.3882592
7	0xbd7c64e1	-0.061619643
8	0x3e8a9753	0.27068576
9	0xbe30b52f	-0.17256616
10	0x3e9e01fb	0.30860886
11	0xbd301445	-0.04298808
12	0xbed638af	-0.4184012
13	0x3e70d3c5	0.23518284
14	0xbdc13fd0	-0.094359994
15	0x3eb664b6	0.3562371
16	0xbeb622d6	-0.35573453
17	0xbecfd1f6	-0.40589875
18	0x3ee6e493	0.45096263
19	0x3e57e4c6	0.21083364
20	0xbedb22c7	-0.4279997
21	0xbeb58f5b	-0.35460934
22	0xbc2edf5b	-0.010673369
23	0x3dd847cd	0.1056057
24	0x3eb97679	0.362232
25	0xbe381fd6	-0.17980894
26	0xbea0ff9f	-0.31445023
27	0xbd891f06	-0.066953704
28	0x3e6b2b02	0.22965625
29	0xbdbaeb58	-0.091269195
30	0x3d1f40c3	0.03888012
31	0x3ebb09ef	0.36531016
32	0x3f074c5a	0.5285088
33	0xbe097621	-0.13423969
34	0xbda63b2b	-0.08116754
35	0xbe2cf8d6	-0.16891798
36	0xbecba600	-0.39775085
37	0x3e0a2e72	0.1349428
38	0xbdb7f9c9	-0.089831896
39	0xbe86d4af	-0.2633414
40	0x3e717f06	0.23583612
41	0xbc95c083	-0.018280273
42	0x3e599366	0.21247634
43	0x3ed2d05e	0.41174597
44	0xbe92d452	-0.28677613
45	0x3d0fe25a	0.035127975
46	0x3de2819a	0.11059876
47	0x3e5c0261	0.21485282
48	0xbe1e630a	-0.15467468
49	0x3ec2f91f	0.3808069
50	0xbe01f969	-0.12692799
51	0x3e49364d	0.1964962
52	0x3d64c170	0.05584854
53	0x3e5e8889	0.21731772
54	0x3e731e7d	0.23742099
55	0x3db34a31	0.08754385
56	0xbe115352	-0.1419194
57	0x3edc9ac0	0.43086815
58	0xbeb480ec	-0.3525461
59	0x3d9994e9	0.074991055
60	0xbe5405ec	-0.20705384
61	0x3cb39093	0.021919524
62	0x3eb84016	0.35986394
63	0x3e805aaa	0.2506917
64	0xbe7d78f4	-0.24753171
65	0xbe932901	-0.2874222
66	0x3e6bd2ac	0.23029584
67	0x3e8399b5	0.25703207
68	0x3e838123	0.2568446
69	0x3dd688ea	0.10475333
70	0x3e46f950	0.19431043
71	0x3e2b4978	0.16727245
72	0xbe218b70	-0.15775847
73	0xbe5bba85	-0.2145787
74	0xbe683d3f	-0.22679614
75	0x3e282a9e	0.16422507
76	0x3eaa9fbc	0.33324993
77	0x3e89fce9	0.26950768
78	0xbd062db1	-0.03275842
79	0x3ee5eb3e	0.44906038
80	0x3e45ce6a	0.19317022
81	0x3e601829	0.21884216
82	0xbe0b5fe6	-0.13610801
83	0xbdc935e5	-0.09824733
84	0xbc0b9b3f	-0.0085209
85	0x3eb7d7bf	0.3590679
86	0x3ee78875	0.45221296
87	0xbdf1f221	-0.118137605
88	0x3d72e2a3	0.05929817
89	0xbe242230	-0.16028666
90	0xbc242169	-0.010017731
91	0x3edae7f1	0.42755082
92	0xbe06a708	-0.13149655
93	0xbe2c2a42	-0.16812995
94	0x3e4ca0b7	0.19983183
95	0xbdf7c382	-0.12097837
96	0x3eb7ff8d	0.35937157
97	0x3dc60f51	0.0967089
98	0x3eb25263	0.3482848
99	0x3e00787a	0.12545958
100	0x3edc4ea1	0.4302874
101	0x3bbee6de	0.0058258614
102	0xbe803e8c	-0.2504772
103	0x3c53f26c	0.012936216
104	0xbe8afb2e	-0.2714476
105	0xbe8f4691	-0.27983525
106	0xbedb5907	-0.4284136
107	0xbeb58f91	-0.35461095
108	0xbecd3085	-0.4007608
109	0xbe8714c5	-0.26383033
110	0xbedb44fb	-0.42826065
111	0x3e5040fc	0.2033729
112	0xbebc3b79	-0.36764124
113	0xbe8eec21	-0.27914527
114	0xbe0b1075	-0.13580497
115	0xbeb6fe31	-0.35740808
116	0xbe6a5b16	-0.22886309
117	0xbb4ab506	-0.0030930652
118	0xbebbb384	-0.36660397
119	0xbea68460	-0.3252287
120	0x3ef1c03d	0.4721698
121	0xbd9590d8	-0.073030174
122	0xbe26a2cd	-0.16273041
123	0x3e8cfc5f	0.27536294
124	0xbd0c0667	-0.034185793
125	0xbeef8462	-0.46780688
126	0x3ed493d1	0.41519025
127	0x3dfb5a4b	0.122730814
128	0x3eb659d1	0.356154
129	0x3ee9a64f	0.45634696
130	0x3e7206b6	0.23635373
131	0x3df2d72e	0.118574485
132	0xbe6c19ee	-0.23056766
133	0x3db5507e	0.08853243
134	0xbf094562	-0.53621495
135	0x3eb9f7b7	0.36321804
136	0xbe15bb8a	-0.14622322
137	0x3e4c0b87	0.19926272
138	0xbd892fc8	-0.06698567
139	0xbda71984	-0.081591636
140	0xbe3351fb	-0.17511742
141	0xbeaf288e	-0.34210628
142	0x3dcf75f4	0.1012992
143	0xbe0bea5f	-0.13663624
144	0xbd220f57	-0.03956541
145	0x3e8ab4c5	0.2709104
146	0x3d4772d2	0.048693486
147	0xbdc33600	-0.09531784
148	0x3d167048	0.036728173
149	0xbe955e90	-0.29173708
150	0x3ec000af	0.37500522
151	0x3eb6928f	0.3565869
152	0x3ede07d2	0.4336534
153	0x3de86a46	0.11348395
154	0xbc4adf05	-0.012382274
155	0x3ec36bd6	0.3816821
156	0x3ebbc789	0.3667567
157	0xbc5a487b	-0.013322945
158	0xbd118eea	-0.035536684
159	0x3eea8a1c	0.45808494
160	0x3e37a859	0.17935313
161	0x3c3c7579	0.011502617
162	0x3d03e49c	0.03220044
163	0x3ea1306e	0.3148226
164	0xbe025c45	-0.1273051
165	0x3e8219cc	0.25410306
166	0x3e4a4db5	0.19756205
167	0xbea1a004	-0.31567395
168	0xbe151260	-0.14557791
169	0x3f008877	0.5020823
170	0x3ec7d073	0.39026222
171	0x3ead9756	0.33904523
172	0xbec376f8	-0.38176703
173	0x3e14f140	0.14545155
174	0xbd9121c4	-0.070865184
175	0xbe3001c7	-0.17188178
176	0x3eaac970	0.3335681
177	0xbe7d20e1	-0.24719574
178	0x3e4ae719	0.1981472
179	0xbe934f55	-0.28771463
180	0xbe994216	-0.29933232
181	0x3e8e407f	0.27783582
182	0xbbd75ea2	-0.0065725604
183	0x3e936f81	0.28796008
184	0x3e29650d	0.16542454
185	0x3e2b3983	0.16721158
186	0x3da1df9c	0.07903978
187	0xbeea24f0	-0.45731306
188	0xbe5cc955	-0.21561177
189	0xbe9bd109	-0.3043292
190	0xbeb8321d	-0.35975733
191	0x3e7594f6	0.23982605
192	0x3d10a996	0.03531798
193	0x3cce8389	0.025209205
194	0xbecd65d9	-0.40116766
195	0xba128879	-0.0005589794
196	0x3bfa0187	0.0076295766
197	0x3e23339d	0.15937658
198	0x3c9f1fb2	0.019424293
199	0x3e6e63ba	0.2328023
200	0x3e94d85a	0.29071313
201	0x3d3495ef	0.0440883
202	0x3e97a140	0.2961521
203	0x3ed29296	0.4112746
204	0x3de79ef1	0.113096125
205	0x3ddd7a50	0.10814345
206	0x3e8063bc	0.2507609
207	0x3d0258e7	0.031823065
208	0xbc064ae3	-0.008196565
209	0xbeda0133	-0.4257904
210	0x3e948964	0.2901107
211	0xbeaff871	-0.34369233
212	0x3ccb240f	0.024797468
213	0x3db7acee	0.089685306
214	0x3e062801	0.13101198
215	0x3ee042be	0.4380092
216	0xbea84a41	-0.3286915
217	0x3e613b6f	0.21995328
218	0x3e5d5ac7	0.2161666
219	0xbdbeecc7	-0.093225054
220	0xbe3c6dbb	-0.18401234
221	0x3de34892	0.11097826
222	0x3e621218	0.22077215
223	0xbe105dbc	-0.14098257
224	0xbbf85386	-0.007578316
225	0x3e9cfd6e	0.30662102
226	0x3e396646	0.1810542
227	0xbe0f6d9e	-0.1400666
228	0xbcf6e53e	-0.030138608
229	0x3e957f42	0.29198653
230	0xbdf3a049	-0.11895806
231	0x3eef8d83	0.46787652
232	0xbe3f8d1e	-0.18706176
233	0xbe522849	-0.2052318
234	0x3c89723b	0.016778102
235	0x3ea5e2d5	0.32399622
236	0x3e91827f	0.28419873
237	0xbe89d2bb	-0.26918587
238	0x3e70984e	0.234956
239	0xbe828b26	-0.25496787
240	0xbec74e9a	-0.38927156
241	0x3dbb8824	0.09156826
242	0xbe8e5ab0	-0.27803564
243	0x3dc769ab	0.097369514
244	0xbe6d1a85	-0.23154648
245	0xbd53d406	-0.051715873
246	0x3e0b28fa	0.1358985
247	0xbe0c3bd3	-0.13694696
248	0xbec76db9	-0.389509
249	0x3cd6a4c7	0.026201619
250	0x3ee78a04	0.45222485
251	0xbebaa032	-0.36450344
252	0xbe5e4a24	-0.2170797
253	0xbd2427b6	-0.040076934
254	0x3d09bf05	0.033629436
255	0x3e8db223	0.2767497

intercepts1 f4 [1, 14]
0	0x3e1fc447	0.15602218
1	0x3e457b1e	0.19285247
2	0xbe38dcfa	-0.18053046
3	0x3d842391	0.06452096
4	0xbde0c44c	-0.10974941
5	0xbe976e97	-0.2957656
6	0x3e2d1c54	0.16905338
7	0xbea63cff	-0.3246841
8	0x3e9af518	0.30265117
9	0xbd3812d1	-0.04493982
10	0x3e921afa	0.28536206
11	0xbe3b0d9c	-0.1826691
12	0xbdd799fb	-0.10527416
13	0xbe5851bc	-0.21124929

coefficient2 f4 [14, 8]
0	0xbdd8d228	-0.10586959
1	0x3ec02dfd	0.37535086
2	0x3d063f35	0.032775123
3	0xbebf7342	-0.37392622
4	0xbdc9f0a8	-0.09860355
5	0x3c7c5f12	0.015403526
6	0x3eddbc3d	0.43307677
7	0xbed76d7a	-0.4207571
8	0x3eef4f79	0.4674032
9	0x3ed71995	0.42011705
10	0x3d9b7775	0.07591144
11	0xbea846ac	-0.32866418
12	0xbefa720c	-0.48915136
13	0x3f12b64f	0.5730943
14	0x3e830802	0.25592047
15	0xbe97c327	-0.29641077
16	0x3e923201	0.28553775
17	0x3e6d8e01	0.23198701
18	0x3d09f402	0.03367997
19	0x3f2f8365	0.6855987
20	0xbddc5bca	-0.10759695
21	0x3ec322b4	0.38112414
22	0xbef41a34	-0.4767624
23	0xbee50c0d	-0.44735757
24	0xbee8e2c9	-0.45485523
25	0x3ef25243	0.47328386
26	0xbea691a7	-0.32533
27	0xbcb0f56f	-0.021601407
28	0xbede1418	-0.43374705
29	0xbe7f044a	-0.2490398
30	0x3ee8341f	0.45352265
31	0x3e08f046	0.13372907
32	0x3e83bb41	0.257288
33	0x3c02c079	0.007980459
34	0x3d9c63ea	0.076362446
35	0x3f101dd8	0.5629554
36	0x3ed44e83	0.4146615
37	0xbeb5b508	-0.35489678
38	0x3e8dcd15	0.27695528
39	0xbd490cc0	-0.049084425
40	0xbe8cb4a3	-0.27481565
41	0x3f00755b	0.5017907
42	0x3e93af5e	0.28844732
43	0x3ec06693	0.37578258
44	0xbec3fb1c	-0.3827752
45	0xbda1e610	-0.07905209
46	0x3ef13d31	0.47116998
47	0x3cd09e76	0.025466185
48	0x3d1feb43	0.039042722
49	0x3d31f3a2	0.043445237
50	0xbf1467eb	-0.57971066
51	0xbe9ea598	-0.30985713
52	0xbdc3f77a	-0.09568687
53	0x3e659654	0.22420627
54	0xbf1733ef	-0.5906362
55	0xbee8c0e1	-0.45459655
56	0x3e9d096e	0.30671257
57	0x3e46d9c3	0.19419007
58	0x3ef32d57	0.4749553
59	0x3d9de646	0.07709937
60	0xbe4b3baa	-0.19846979
61	0x3eba327c	0.36366642
62	0xbc94f6a1	-0.018184008
63	0x3e930e26	0.28721732
64	0x3f2db845	0.678593
65	0x3df788d4	0.12086645
66	0xbe85c7ab	-0.26128897
67	0x3dcf8ff3	0.10134878
68	0x3e7201b1	0.23633458
69	0x3f4ac46f	0.79205984
70	0xbed58a13	-0.41706905
71	0xbcb50f24	-0.022101946
72	0xbe7f480e	-0.2492983
73	0xbf27962b	-0.65463513
74	0x3f09c363	0.5381376
75	0xbecdb343	-0.40175828
76	0xbcc66ba9	-0.024221258
77	0x3e553aa0	0.20823145
78	0x3dc7f89b	0.097642146
79	0x3e580468	0.21095431
80	0x3ef5688a	0.4793132
81	0xbe4aa441	-0.1978922
82	0xbd236562	-0.039891608
83	0xbeeed08b	-0.4664348
84	0xbef3824b	-0.47560343
85	0x3b9d1b55	0.004794518
86	0xbf1d80a6	-0.61524427
87	0x3d46f7cf	0.048576172
88	0x3d7c4365	0.06158771
89	0xbebe6a90	-0.37190676
90	0xbc0013de	-0.007817237
91	0xbefa990e	-0.48944896
92	0x3c85300c	0.016258262
93	0x3e49121f	0.19635819
94	0xbda9f059	-0.08297796
95	0x3eee5f83	0.46557245
96	0xbee210ba	-0.44153386
97	0x3e6cca0c	0.2312395
98	0xbee9b189	-0.4564326
99	0x3eb3f1f2	0.35145527
100	0x3e342c3c	0.17594999
101	0xbee340bf	-0.44385335
102	0x3e64b7b8	0.22335708
103	0x3ebb1bfa	0.36544782
104	0x3d41938f	0.047259863
105	0x3f11d50b	0.569657
106	0xbe91ac81	-0.28451923
107	0xbe6a42fe	-0.22877118
108	0x3f44cdcb	0.76876515
109	0xbecf13b3	-0.40444717
110	0xbf17d189	-0.593041
111	0xbed0977d	-0.40740576

intercepts2 f4 [1, 8]
0	0x3e11e262	0.14246514
1	0xbec61f78	-0.38695884
2	0xbe28fe6d	-0.16503306
3	0x3ef94ba0	0.4869051
4	0x3de98204	0.11401752
5	0xbec96882	-0.39337546
6	0xbe8e3bc9	-0.27779987
7	0xbe2216c9	-0.15829004

coefficient3 f4 [8, 4]
0	0x3ea8f168	0.32996678
1	0xbf31e3cb	-0.6948821
2	0x3d9c1ed0	0.076230645
3	0xbf342421	-0.7036763
4	0xbf43147b	-0.76203126
5	0xbc7806ed	-0.01513837
6	0x3e0441e1	0.12915756
7	0xbe32839b	-0.17433016
8	0x3ec8bfc6	0.39208812
9	0xbe638199	-0.22217406
10	0xbf0fed9c	-0.5622194
11	0xbe356f26	-0.17718181
12	0xbf31552a	-0.69270575
13	0xbf62feb8	-0.8866992
14	0xbd5a0bf3	-0.053234052
15	0x3dd798e0	0.105272055
16	0xbec60a81	-0.3867989
17	0xbf128783	-0.57238024
18	0x3ecad023	0.3961192
19	0x3e9a725e	0.3016538
20	0x3f3ac184	0.7295153
21	0x3f147c83	0.5800249
22	0x3e862948	0.2620337
23	0xbed581a6	-0.41700476
24	0x3eef3673	0.4672123
25	0x3f068b78	0.5255656
26	0xbeb6f5eb	-0.35734496
27	0x3f40a85e	0.7525691
28	0xbec1d9ea	-0.37861568
29	0x3f1a739f	0.60332674
30	0xbed20ab4	-0.4102379
31	0xbd0ad1d9	-0.033891533

intercepts3 f4 [1, 4]
0	0xbec5c767	-0.38628694
1	0xbf19ce9a	-0.60080874
2	0x3f2e9b1b	0.6820542
3	0xbd212e77	-0.039350953
