UserGuidanceAI/models/BurstSize_270/UserGuidanceAIMLP.onnx (onnx, 450527 bytes, 8 tensors)

coefficient f4 [4320, 23]
000000 a6 e9 05 bb 8b 11 28 3d 6f 92 c0 bd c3 06 56 3d
       -0.0020433455 0.041032355 -0.0940293 0.052252542
000010 37 d3 87 bd 2d 4a 93 3c 3b b0 d7 bb 05 d5 ff bc
       -0.06632083 0.017979706 -0.0065822876 -0.031229505
000020 e2 a8 2a 3c 7e 1a 16 bc 48 bc 97 bc 07 ee 4d 3c
       0.010416241 -0.00916159 -0.018522397 0.012568957
000030 b4 8d 55 bb 44 a5 a6 3c 16 7f 8e bc 3a 7a e6 bc
       -0.0032585682 0.020342477 -0.017394584 -0.028134454
000040 ac c3 ad bc 00 a0 89 3c 2c c5 8c bb 76 6a 02 bd
       -0.021211468 0.016799927 -0.0042959657 -0.03183981
000050 60 48 ac 3c 2a de 8c 3c ad 18 e7 3c f8 42 87 3c
       0.021030605 0.01719578 0.028210009 0.016511425
000060 9c be 56 3d 7c a2 d7 bc b2 af 0d 3d 0f db 8c bd
       0.052427873 -0.026322596 0.034591384 -0.068777196
000070 0d f4 b6 3c 0b 7e 29 3d 6a 7f 3d bd 8d 01 0d 3c
       0.02233317 0.04137997 -0.04626409 0.008606327
000080 55 2e cb 3c 87 2f 0b bc bc a7 09 3c 1a d3 af 3b
       0.024802366 -0.008495218 0.008401807 0.0053657414
000090 cc 25 9d 3b c6 bc 25 3d a0 08 95 bd 6d 2d 6b 3b
       0.0047957655 0.04046323 -0.07277036 0.003588523
0000a0 d2 92 41 3d bd bb 1d 3d 49 40 d0 bc 04 54 a0 3c
       0.04725916 0.03850912 -0.025421279 0.019571312
0000b0 39 92 3b bd 50 3b 15 3d 02 37 ff 3c 8a 46 2f 3c
       -0.045793746 0.036433518 0.03115416 0.01069797
0000c0 6f af 95 bd 88 72 0c 3d b4 64 85 bd 07 a3 7a 3d
       -0.07308852 0.034288913 -0.06513348 0.06119063
0000d0 89 33 cd bb c8 5d 00 bd 42 ef 49 3c c6 10 28 bd
       -0.006262247 -0.031339437 0.01232511 -0.04103162
0000e0 89 30 d0 bb b8 9b 07 bd 0a 13 ca 3c 5d 5d b0 3b
       -0.006353442 -0.03310749 0.024667282 0.0053822235
0000f0 65 8d 6b bc 7b e5 0d bd d7 92 b1 bb 99 93 10 3c
       -0.014376973 -0.034642678 -0.005419116 0.0088242525
000100 9f a5 2e bc 64 98 05 bc 30 be 22 3b ee 75 90 bc
       -0.010659604 -0.008154009 0.00248326 -0.017634358
000110 38 17 97 3d f6 75 ba 3b b9 34 49 3d 8c 1b a4 bd
       0.073774755 0.0056903316 0.049122546 -0.08013067
000120 90 94 0b 3d 25 af de bb b2 51 16 3d 6e 0e 58 bc
       0.034077227 -0.006795781 0.036699004 -0.013187034
000130 c6 dc 9c 3c ea dd 0c 3b ca bb 57 3c 9c ca e3 3b
       0.019148242 0.0021494576 0.013167331 0.006951643
000140 50 0d 93 3c eb 09 dc 3c c5 83 e8 3b af 52 b3 b9
       0.017950684 0.026860198 0.0070957863 -0.00034203145
000150 68 d9 22 bd 82 f3 66 3c 37 18 64 3b 0d dc 62 3d
       -0.039758116 0.014096143 0.0034804472 0.055385638
000160 34 dd 26 3b 11 8d f6 3b 88 0d 2f bd 43 cd 8b 3d
       0.0025461437 0.0075241406 -0.042737514 0.0682626
000170 c9 a4 e8 bb 1f 31 ba 3c 55 ba 77 bd fe 1c 1f 3d
       -0.007099722 0.0227285 -0.060480434 0.03884601
000180 dd 2f 9a ba fa 3e 3f 3d 39 ce 8b bc 12 7d a5 bb
       -0.0011763532 0.04669092 -0.017066108 -0.00505031
000190 1f f4 8e 3b fc d4 db ba 6e 79 b8 3c b7 5c 72 bc
       0.0043625976 -0.0016771848 0.02251884 -0.014792613
0001a0 d9 6a 35 3d 50 c8 8e 3b 86 bd fa bc 5a 43 c2 3b
       0.04429135 0.004357375 -0.03060795 0.005928439
0001b0 43 e6 52 3b 13 45 32 3d ab 6f cb 3b d7 67 1b bd
       0.0032180704 0.043522906 0.00620838 -0.037940826
0001c0 a7 72 07 3d 58 67 8e 3a be 46 a4 39 08 47 80 3c
       0.033068325 0.0010864539 0.00031333225 0.01565887
0001d0 63 aa 0d 3d c0 ea b7 bc 59 c7 97 3d a8 48 67 bd
       0.03458632 -0.022450805 0.074110694 -0.056465775
0001e0 50 44 c7 3b b6 37 7a bc 6a c3 4b bd bf 14 2a bb
       0.0060811415 -0.015272072 -0.04974691 -0.0025952307
0001f0 13 8b bc 3c 81 2d 1d bb 1b 7d aa 3a 37 df 23 3d
       0.023015535 -0.0023983421 0.0013007255 0.040007796
000200 6a 44 07 bd 34 e9 34 bc 57 98 8a bc e8 de c4 3c
       -0.03302423 -0.011041928 -0.016918344 0.024032071
000210 81 ed 31 3c fe 03 c3 bb 10 7a 37 3c 11 11 80 bc
       0.010859848 -0.0059514036 0.011198536 -0.015633138
000220 52 e0 0f 3c 20 b4 c3 3c f4 44 c4 3c 55 74 fd 3c
       0.0087815095 0.023889601 0.02395866 0.03093926
000230 a1 d7 40 bd ac b9 d3 3c e7 91 6a bd b1 8a 59 3c
       -0.04708064 0.025845371 -0.05726805 0.0132776955
000240 7b f5 a0 bc 8f 19 3a bd 99 35 42 bb 6e 4c 75 3c
       -0.019648304 -0.04543453 -0.0029633997 0.014971836
000250 d5 3b 61 ba 7c 32 22 bd c3 0f 96 bc b0 70 e2 3c
       -0.00085919845 -0.039598927 -0.018318063 0.027641624
000260 7f f2 25 3c e0 84 2a bd b2 36 f5 bc f1 23 ab 3c
       0.010128616 -0.041630626 -0.029933307 0.020891162
000270 7b 71 f4 3b a7 fe ae bb 86 64 2d 3d a6 07 7e 3c
       0.007459817 -0.0053404155 0.042332195 0.015504753
000280 3b 64 50 3c 05 6b af bb 80 22 97 3c 0b bc c2 bc
       0.012719209 -0.005353334 0.018449068 -0.023771306
000290 a1 16 da 3c a4 40 76 bd 90 71 39 3c 31 79 43 3c
       0.026622118 -0.06012024 0.011318579 0.01193075
0002a0 76 97 03 bc 27 c9 c5 3c dc 5c 43 bc 99 8f 0a 3d
       -0.008031717 0.024143768 -0.011923995 0.03382835
0002b0 1a 41 9c 3b 22 04 16 3b 1f d9 60 bb 87 dc b1 3c
       0.004768503 0.0022890647 -0.0034309102 0.021711601
0002c0 60 51 ec bb bf 1a e1 bc 8b 28 02 bd da 2c 8e 3c
       -0.007211849 -0.027478574 -0.031776946 0.017355371
0002d0 87 ae 9a 38 79 aa 30 bc 5a e3 eb 3b 81 0e 31 bb
       7.3758005e-05 -0.010782831 0.0071987333 -0.0027016702
0002e0 02 42 ce bc 9e 2e ee 3c 28 ab 8f bd 6a 23 78 3d
       -0.02517796 0.029074963 -0.07015067 0.06058065
0002f0 c3 68 a5 bc 01 81 91 3d 75 b7 39 bb 5a 74 3f bd
       -0.020191556 0.07104684 -0.0028338109 -0.04674182
000300 b0 6d 11 3d 72 07 ca 3c 68 41 f0 3c 81 68 09 3d
       0.035504997 0.024661753 0.029328063 0.03354693
000310 21 dd e6 bc ae 3b ce bc 9a da 27 3c 28 23 77 3c
       -0.028181614 -0.025174942 0.01024499 0.0150840655
000320 a1 e2 c2 3c 47 c7 ee 3a 63 c6 7c 3d 43 d3 07 3b
       0.023789706 0.0018217348 0.061712634 0.0020725287
000330 ec ed 04 3b 20 8b 2c bc 40 aa 0d 3d 0b 2d 9c bb
       0.0020283414 -0.010531217 0.03458619 -0.0047661117
000340 66 4e 1b 3d f6 c5 92 bc 21 af 26 3d d2 89 4e 3c
       0.037916563 -0.01791666 0.04069436 0.012606101
000350 26 a3 74 3c ae 26 17 bc 04 87 24 bd 40 91 aa 3c
       0.014931476 -0.009225531 -0.040167823 0.020821214
000360 07 bb f9 bc 44 80 0b 3d 8e 4e e3 3c c7 73 ff bc
       -0.03048469 0.03405787 0.027747419 -0.031183137
000370 b7 85 e1 bc ca d0 43 bc 9b 42 3a bd c4 02 6c 3c
       -0.02752958 -0.011951635 -0.045473676 0.014404956
000380 e9 6c 7c bc 1c f0 91 3d ee cc 49 bb 2e 9b 27 3d
       -0.015406826 0.07125875 -0.0030792314 0.040919475
000390 58 19 85 3c 67 ef 65 3d 3d a8 61 bc 87 bc cb 3b
       0.016247436 0.056136515 -0.013773021 0.0062175426
0003a0 b4 65 93 bc 82 80 f9 3c de 38 9b bc 85 a0 2d 3d
       -0.017992832 0.030456785 -0.018948015 0.04238941
0003b0 31 40 f1 bc 13 c0 b9 bb 84 d4 70 3c 84 b7 e3 3c
       -0.029449554 -0.005668649 0.014699105 0.027797468
0003c0 99 0d 33 bc 38 3c f0 3c b9 fa 7b 3c 67 50 04 bd
       -0.010928535 0.02932559 0.015379601 -0.03230324
0003d0 a6 5d a4 3c 69 1d 34 bc 85 ee 1f bd be 50 3c bc
       0.020064186 -0.01099334 -0.03904583 -0.01149386
0003e0 69 50 40 3d bb 2a ab 3c 37 f2 8e bc e8 6f e1 3c
       0.046951685 0.020894399 -0.017449481 0.027519181
0003f0 14 dd 53 3c 4e da be 3c 53 bd 0d 3c 6e c1 3b bc
       0.012931127 0.023297455 0.008651095 -0.011459691

intercepts f4 [1, 23]
000000 ce c4 3d bc 5e f3 9a 3c 30 ab 29 3d 39 89 4f bc
       -0.011582566 0.018914875 0.041423023 -0.012666994
000010 05 b6 8c 3d 7c cc 09 bd b1 8d 6e bc d1 e9 ee 3d
       0.06870655 -0.033642277 -0.014560149 0.11665691
000020 bf 22 04 bd 28 0d f4 3c a6 68 1a 3d e4 80 55 bc
       -0.0322597 0.02979143 0.037697457 -0.013031218
000030 4c ae d4 bc f4 35 0c bc fa d7 3c ba 21 d1 47 3d
       -0.025962017 -0.008557785 -0.0007203814 0.048783425
000040 a9 44 ae bc db 0b c7 bc 93 70 b2 bd bd 72 51 3d
       -0.021272974 -0.024297645 -0.08712878 0.051134814
000050 50 af 5c 3c 6d b2 cc 3c ce f2 3b bd
       0.013469532 0.024987424 -0.045885853

coefficient1 f4 [23, 14]
000000 02 ba e6 3d 5a a2 38 3e c3 18 c0 3e 13 70 da 3e
       0.11265947 0.18030682 0.37518892 0.4266363
000010 39 32 b5 be 41 4c b2 be ed da f6 bc c4 75 a0 be
       -0.3538988 -0.34823802 -0.030133689 -0.31339848
000020 46 4a 10 be 7d c1 8c 3e 9d 11 ce 3d 78 d2 b4 be
       -0.14090833 0.2749137 0.10061953 -0.35316825
000030 cf e2 73 be c0 1e d0 3e f9 ca 6a 3e 23 21 75 be
       -0.2381699 0.4064846 0.2292899 -0.23938422
000040 07 7f e7 3d bd 89 a3 3d 24 8c 8a 3e 34 9e 75 be
       0.113035254 0.07985256 0.27060044 -0.23986131
000050 18 3a 57 be 67 eb 4a be 4e e4 7e be 86 18 b9 3e
       -0.21018255 -0.19816361 -0.24891779 0.36151522
000060 2e eb 10 3d 15 3e 3c be fc 17 ca be ee 36 61 bb
       0.035380535 -0.18383057 -0.39471424 -0.0034365016
000070 e5 0e 23 3e 60 ce ee bd d7 bc 8f be 95 b3 0f 3e
       0.1592365 -0.11660457 -0.2807376 0.14033349
000080 ac 9f 30 3d 6e e5 90 3e 46 c0 e0 be 16 0f 98 3e
       0.043121025 0.2830004 -0.43896693 0.2969901
000090 f7 a8 5b be c1 3b 54 3e 93 f9 b5 be 8e 32 e1 3e
       -0.21451174 0.2072592 -0.35541973 0.43983883
0000a0 2e da dc bd 82 c6 0a be f3 29 4e 3e 78 37 6d 3e
       -0.10783802 -0.13552287 0.2013319 0.23165691
0000b0 ee 82 1b 3e f5 71 36 be 53 1a ed bc f4 c3 93 bd
       0.15186664 -0.17816909 -0.028943216 -0.072151095
0000c0 69 43 98 3d 88 b0 a0 3e 90 83 15 3d 0d d9 32 3e
       0.074347325 0.31384683 0.03650242 0.17465611
0000d0 66 d6 eb be c0 e6 9f 3e df e9 20 be d3 fa b2 bd
       -0.4606201 0.31230736 -0.15714215 -0.08739247
0000e0 ba ef e9 3e 50 38 8b be 46 7b 87 be 88 5b 8b 3e
       0.4569071 -0.271914 -0.26461238 0.2721827
0000f0 a2 10 d5 3d a8 65 be 3e c1 48 35 3e 5e 37 fc bc
       0.10403563 0.37186933 0.17703535 -0.03078812
000100 f4 95 9d 3e 14 92 3a be d6 ba d1 3e f5 8a 3b be
       0.30778468 -0.18219787 0.40962857 -0.18314727
000110 47 a5 26 3d 48 47 8b 3e 1e d1 81 3b aa 3d 01 3e
       0.040684965 0.2720282 0.0039616963 0.12621179
000120 16 ee c6 3e 73 65 fc 3d 87 bb 9c be 83 2d 6f be
       0.3885352 0.123240374 -0.30611822 -0.23357205
000130 54 18 4d be 62 4b 63 be 38 01 fa 3d b0 80 99 be
       -0.20028812 -0.22196725 0.12207264 -0.29980993
000140 fc 8e 91 3c 60 eb 58 be d9 7d 34 3e 6c f6 96 3e
       0.017768376 -0.21183538 0.17626132 0.2948488
000150 a8 df 06 bd 87 7c e2 bc 77 fd b6 3d 92 8a 22 be
       -0.03292814 -0.02764727 0.08935063 -0.15873173
000160 69 01 48 3e e4 90 e1 be fe 67 84 3e 95 40 72 be
       0.19531788 -0.44055855 0.2586059 -0.23657449
000170 90 cd bf 3e 16 22 bd bd 95 df 43 bd 13 25 b3 bd
       0.3746152 -0.09235017 -0.047820646 -0.08747306
000180 bd 89 4d 3d 3b bd f2 bd 35 ec ab 3e da fb 82 bc
       0.050180186 -0.11852499 0.3357865 -0.015989233
000190 3a 6d 5e be c4 a6 f5 bd 00 98 0e 3e b9 e5 d3 3e
       -0.21721354 -0.11994699 0.13925171 0.41386202
0001a0 b8 f1 95 3e 63 c7 24 3e 96 2c 16 3d 6d ba c5 bd
       0.2928598 0.16091685 0.036663614 -0.096546985
0001b0 97 7b df 3d 5e 43 e8 be 18 4c 5f 3e 05 fc 3c 3e
       0.10912245 -0.45363897 0.21806371 0.18455513
0001c0 5a a8 83 3e db 98 50 be 15 b9 ab bd dc 08 b8 3e
       0.2571438 -0.2037081 -0.08384911 0.3594426
0001d0 4d f1 b0 3e 99 56 72 be ce 54 cd be 03 cf 34 be
       0.34559098 -0.23665847 -0.40103763 -0.17657094
0001e0 83 d9 81 be e0 48 f8 3d 98 75 b5 be e8 ab cf 3c
       -0.2536126 0.12123275 -0.3544128 0.025350526
0001f0 ba b5 8f 3e 0b 1f 7d 3e 2b 15 80 3d 96 d9 21 be
       0.28068334 0.24718873 0.062540375 -0.15805659
000200 e5 26 13 be 0e b3 78 3c a4 24 64 be fe dd 64 3e
       -0.14370306 0.015179409 -0.22279602 0.22350308
000210 b6 a3 b6 be 90 88 0b be b7 99 17 3e a9 de 64 3e
       -0.35671777 -0.13626313 0.14804731 0.22350563
000220 0d df c3 3e a1 ed 84 3e 24 58 3b 3e 7d 08 e6 be
       0.38256112 0.25962546 0.18295342 -0.4492835
000230 63 76 d7 bd 73 82 71 be 12 9d f3 be b5 f5 4d 3e
       -0.10520627 -0.23584919 -0.47580773 0.20113261
000240 49 34 43 3e 25 f9 b0 3e 4a cd cb 3e 6c 1c 98 bd
       0.19062914 0.34565082 0.3980506 -0.07427296
000250 ab 74 b7 bd 58 aa 52 3e 42 60 60 be 9e 0e 92 be
       -0.089577995 0.20572793 -0.2191172 -0.28526777
000260 70 6e ca 3b f0 a8 64 be 3d fe 94 3d 72 4c 91 3e
       0.006177716 -0.2233007 0.072750546 0.28378636
000270 ea 66 81 3e 07 6a 9f 3e 99 17 a6 3e c8 cf 09 be
       0.2527383 0.3113558 0.3243988 -0.13458169
000280 dc a2 bf be 9a 0e d4 be 5b 80 da 3e 85 86 4e 3e
       -0.3742894 -0.4141739 0.42676052 0.20168503
000290 3e 7f 40 3c 78 40 53 3d 2f 6c 7e 3e bb 17 8b be
       0.011749087 0.051575154 0.24845956 -0.27166542
0002a0 68 bc cc 3e 94 9c 0b 3e 15 11 a7 3e c9 b3 ad 3e
       0.39987493 0.13633949 0.3263022 0.33926228
0002b0 b2 70 3a be 21 c0 a9 3e 43 a3 4b be 59 4d c7 3d
       -0.18207052 0.33154395 -0.19886498 0.0973155
0002c0 f0 cb c4 3c 4d 0e 8f 3e d2 69 f6 be fe 0b 99 3e
       0.024023026 0.27940598 -0.4812761 0.29891962
0002d0 7c 9d 85 3e d8 3a 6d 3e a5 34 2a be fe 25 4d bd
       0.26096714 0.23166978 -0.16621645 -0.05008506
0002e0 00 37 cf 3e 67 ab e4 3e d5 38 bc bd 07 a4 a5 be
       0.4047165 0.4466202 -0.09190527 -0.32351705
0002f0 1e 32 4e 3e fe 6f 76 bc c9 aa e7 3e 04 79 8a bd
       0.20136306 -0.015041349 0.45247486 -0.06761363
000300 57 58 c6 be de 02 0b bd 46 bb 44 be 9f 56 c0 3d
       -0.38739273 -0.03393828 -0.19212064 0.09391522
000310 e1 aa 8f 3e 4f 9c 57 3e c3 87 a1 3e 53 96 87 be
       0.28060058 0.21055721 0.3154889 -0.26481876
000320 56 b5 00 3e 5c e4 38 be 7b d0 ad 3e 34 1b 3b 3e
       0.12569174 -0.18055862 0.3394812 0.18272096
000330 cc 14 e2 be dc cc 12 3e c4 ff e4 bc 7c 49 1a be
       -0.44156492 0.1433596 -0.02795399 -0.15067095
000340 28 d9 a5 3e dd 17 f3 3e 3e 55 f2 bd 20 09 0f 3e
       0.3239224 0.47479144 -0.11832665 0.13968325
000350 96 89 8d 3e 61 55 fb bd c1 f8 41 be 74 39 fd 3e
       0.27644032 -0.12272144 -0.18942548 0.49457896
000360 f2 95 47 be 3b 2b b4 3e 9f 0c 63 bd 28 ae f4 3e
       -0.19490793 0.35189232 -0.05543196 0.4778912
000370 2a ad 0b be 35 ef 5a 3e df 77 ee be 83 47 67 3e
       -0.13640276 0.21380313 -0.4657583 0.22585873
000380 62 a5 bf be 47 7d 89 bd 63 c5 c9 be 02 aa be 3e
       -0.37430865 -0.06713348 -0.39408407 0.3723908
000390 fd 3b 8c be d7 1d fd bd 58 2b 40 3e bc fc 53 be
       -0.27389517 -0.12359207 0.18766534 -0.2070188
0003a0 97 69 d9 3e 56 56 6d 3e 14 6c 84 3e 7b 8c ca 3e
       0.4246337 0.23177466 0.25863707 0.39560303
0003b0 d9 4c ed 3e cc 9f 56 be d1 79 86 3e fc 7a fb bc
       0.46347693 -0.20959395 0.26264814 -0.030698292
0003c0 bc 61 be 3e 09 91 9f be ee b1 19 be bb c2 a7 3e
       0.3718394 -0.3116534 -0.15009281 0.32765755
0003d0 79 67 05 be f0 cb bc be 8d cf 66 be 82 81 98 3b
       -0.13027753 -0.36874342 -0.22540112 0.0046541104
0003e0 d8 a7 17 be cb c5 55 3e f0 e2 a5 be 23 33 9c bd
       -0.14810121 0.20876233 -0.32399702 -0.07626941
0003f0 b8 0e 95 be 9e 23 0f be 84 f7 ac 3e 0c e9 f1 3d
       -0.29112792 -0.1397843 0.3378259 0.11812028

intercepts1 f4 [1, 14]
000000 a4 20 d5 3e ac 2a 92 3e 38 01 d2 be b4 62 ac 3d
       0.41626465 0.2854818 -0.41016555 0.084172636
000010 a5 85 0c be f1 f6 75 3c f8 fa d4 3d bf 73 2b be
       -0.13722856 0.015012489 0.10399431 -0.16743372
000020 8d f1 94 3e b0 fc 08 be c4 f5 53 3e 6a f5 9b be
       0.2909054 -0.13377643 0.20699221 -0.30460674
000030 8f ab ce 3e 38 ce 05 3e
       0.40365264 0.13066947

coefficient2 f4 [14, 8]
000000 99 cd 64 3e 81 73 11 3f b7 3a f8 be 6e 8b 09 3f
       0.22344054 0.5681687 -0.48482296 0.5372838
000010 7f 47 83 be 2d 18 97 be d4 dd f9 3e 23 ac ad be
       -0.25640485 -0.29510632 0.48802054 -0.33920392
000020 5c 52 01 be b6 30 f2 be 7f 8f a8 3e b4 cc bd 3e
       -0.12629074 -0.47302788 0.3292198 0.3707024
000030 16 e7 fa 3e 98 0a 97 3e b8 f6 85 3e a9 8e 51 bc
       0.4900443 0.2950027 0.26164794 -0.0127903605
000040 a3 e8 62 be 8d 40 d1 be 3a c8 93 3e bd 16 82 3e
       -0.22159056 -0.4086956 0.28863698 0.25407973
000050 ee 83 22 bd 52 3f 39 3e a4 7f 04 3f d3 9a 93 ba
       -0.0396766 0.18090561 0.51757264 -0.0011261351
000060 fc 88 81 3d 6d 55 4d 3d ee 1e dd bc fa dd c9 3e
       0.06324956 0.050130296 -0.026992287 0.39427167
000070 eb 1a eb 3e 8e d4 8c 3e 55 c5 ab be 60 8a d3 3d
       0.45918974 0.27505916 -0.3354899 0.10329127
000080 10 24 b4 3e 61 d9 11 bf 0f 1f 66 3d aa ca cc 3e
       0.35183764 -0.5697232 0.056181964 0.3999837
000090 69 7b 11 3d 6e 9d 83 be 0e a7 f7 3e 98 c0 6d bc
       0.035518084 -0.25706047 0.4836964 -0.01451125
0000a0 d0 b2 4a 3e f0 1d 1e 3f f4 07 45 3e aa 06 91 be
       0.19794774 0.6176443 0.19241315 -0.28325397
0000b0 be c4 a5 3e d2 ac 02 3f 40 e1 07 3e ee 13 cb 3d
       0.32376665 0.5104495 0.1326952 0.09915911
0000c0 8d 39 be bd 2d 25 1c be 09 a8 4e 3d 5a 53 bb be
       -0.09288321 -0.15248556 0.05045322 -0.3658703
0000d0 1a a7 80 3e 3e 9d 0d 3e da 55 05 3f a8 98 58 3e
       0.25127488 0.13829514 0.52084124 0.21151984
0000e0 c8 3c 91 3e 52 92 20 3f fc 69 92 3e 1a 1e 9f 3e
       0.28366685 0.6272327 0.28596485 0.31077653
0000f0 f9 98 21 be b6 bd b2 3e 89 ca ff be d8 93 a1 bb
       -0.1578101 0.34910363 -0.4995921 -0.0049309544
000100 7a 90 7b 3e 1a 1d 2d be 18 cf 12 3e 03 7b ce 3e
       0.24566832 -0.16905633 0.14336812 0.40328225
000110 14 10 8b be 6d f5 d3 3e 49 22 dc be e8 e5 84 be
       -0.27160704 0.41398183 -0.42994907 -0.25956655
000120 4b dc ea 3e 23 d0 cd be a6 0b a0 be 37 01 00 bf
       0.45871195 -0.40197858 -0.31258887 -0.50001854
000130 5b ca ce 3e 1b 82 d1 be ec 89 0f 3e dd aa 4a be
       0.4038876 -0.40919575 0.14017457 -0.19791742
000140 e5 df 41 bd 17 dd 9e 3d 5d 75 ba bd 3e 3e 04 3f
       -0.047332663 0.07757013 -0.091044165 0.51657474
000150 d0 b7 97 be 15 e7 18 bf 97 52 0e bf 1e 9e 75 bd
       -0.29632425 -0.59727603 -0.5559477 -0.059965245
000160 5e 3d 76 3e 7d 4b dc 3e 96 0a 7e 3e c9 50 ce 3d
       0.24046847 0.43026343 0.24808726 0.10074002
000170 52 7e 1a 3f 86 2f a5 bc da 2a 8c 3e e2 2e a5 3d
       0.60349 -0.020164263 0.27376443 0.08065583
000180 7e ea 0e 3f f0 79 15 3e ea 07 91 be e8 30 cb 3e
       0.55826557 0.14597297 -0.2832635 0.3968575
000190 3a 09 ca 3d 54 96 71 3d aa 5e da 3d bc 31 9e bc
       0.09865041 0.058981255 0.10662587 -0.019310825
0001a0 65 e3 ee bd 9c 18 4f be b6 7b 8c be 0e 22 c4 3d
       -0.11664466 -0.20224231 -0.27438134 0.09576808
0001b0 7f f2 8a bd 17 c5 fe 3c 61 e4 fa 3e fd f8 42 3e
       -0.06784534 0.03109984 0.49002364 0.19040294

intercepts2 f4 [1, 8]
000000 ac 1f ea 3e e4 14 a2 be 0b ea bf be 1f 0e 0b 3e
       0.4572729 -0.31656563 -0.37483248 0.13579606
000010 c4 92 78 3d 3f 6b bb 3d 67 79 b9 3e 4b 9f 8c be
       0.06068684 0.09151315 0.36225435 -0.2746528

coefficient3 f4 [8, 4]
000000 7c 39 ae 3e cb 01 2c 3e cd 44 3c 3e 76 28 c7 be
       0.34028232 0.16797559 0.1838562 -0.38898057
000010 7c 56 c1 3e 4e 51 02 be d0 15 1a 3f f0 44 49 3e
       0.37761295 -0.12726328 0.60189533 0.19655204
000020 d5 8e 8c 3e d7 e5 25 3f 72 5b 94 be 45 41 d0 3e
       0.27452722 0.6480383 -0.28976017 0.40674797
000030 77 d2 42 be 52 90 89 be 37 14 3c bf 93 05 0d be
       -0.19025598 -0.2686792 -0.73468345 -0.13771658
000040 2b c1 4a bf a9 db 04 3f be c5 ae 3e 98 ca 61 be
       -0.79201 0.51897675 0.3413524 -0.2204994
000050 28 38 8b be ec 93 d5 3e b9 f2 b6 3e cf 79 8c 3e
       -0.2719128 0.41714418 0.35732058 0.27436683
000060 79 9e a1 bd 7d 0f 72 be 4c 1f 27 3e d2 27 39 3f
       -0.078915544 -0.23638721 0.16320533 0.72326386
000070 ce 5c 77 3c de 44 d1 3b 39 21 43 bd 67 37 50 be
       0.01509781 0.0063863834 -0.047639105 -0.20333634

intercepts3 f4 [1, 4]
000000 9d a6 bf 3c 4a 34 da be 44 63 ce be 39 b6 b0 3e
       0.023394877 -0.42618018 -0.4031011 0.34514025
